{"format": "graph-model", "generatedBy": "2.4.1", "convertedBy": "TensorFlow.js Converter v3.8.0", "signature": {"inputs": {"densenet121_input": {"name": "densenet121_input:0", "dtype": "DT_FLOAT", "tensorShape": {"dim": [{"size": "-1"}, {"size": "224"}, {"size": "224"}, {"size": "3"}]}}}, "outputs": {"dense_7": {"name": "Identity:0", "dtype": "DT_FLOAT", "tensorShape": {"dim": [{"size": "-1"}, {"size": "5"}]}}}}, "modelTopology": {"node": [{"name": "StatefulPartitionedCall/sequential_3/densenet121/zero_padding2d_6/Pad/paddings", "op": "Const", "attr": {"dtype": {"type": "DT_INT32"}, "value": {"tensor": {"dtype": "DT_INT32", "tensorShape": {"dim": [{"size": "4"}, {"size": "2"}]}}}}}, {"name": "StatefulPartitionedCall/sequential_3/densenet121/zero_padding2d_7/Pad/paddings", "op": "Const", "attr": {"dtype": {"type": "DT_INT32"}, "value": {"tensor": {"dtype": "DT_INT32", "tensorShape": {"dim": [{"size": "4"}, {"size": "2"}]}}}}}, {"name": "StatefulPartitionedCall/sequential_3/densenet121/conv2_block1_2_conv/Conv2D/ReadVariableOp", "op": "Const", "attr": {"value": {"tensor": {"dtype": "DT_FLOAT", "tensorShape": {"dim": [{"size": "3"}, {"size": "3"}, {"size": "128"}, {"size": "32"}]}}}, "dtype": {"type": "DT_FLOAT"}}}, {"name": "StatefulPartitionedCall/sequential_3/densenet121/conv2_block1_concat/concat/axis", "op": "Const", "attr": {"dtype": {"type": "DT_INT32"}, "value": {"tensor": {"dtype": "DT_INT32", "tensorShape": {}}}}}, {"name": "StatefulPartitionedCall/sequential_3/densenet121/conv2_block2_2_conv/Conv2D/ReadVariableOp", "op": "Const", "attr": {"dtype": {"type": "DT_FLOAT"}, "value": {"tensor": {"dtype": "DT_FLOAT", "tensorShape": {"dim": [{"size": "3"}, {"size": "3"}, {"size": "128"}, {"size": "32"}]}}}}}, {"name": "StatefulPartitionedCall/sequential_3/densenet121/conv2_block2_concat/concat/axis", "op": "Const", "attr": {"dtype": {"type": "DT_INT32"}, "value": {"tensor": {"dtype": "DT_INT32", "tensorShape": {}}}}}, {"name": "StatefulPartitionedCall/sequential_3/densenet121/conv2_block3_2_conv/Conv2D/ReadVariableOp", "op": "Const", "attr": {"value": {"tensor": {"dtype": "DT_FLOAT", "tensorShape": {"dim": [{"size": "3"}, {"size": "3"}, {"size": "128"}, {"size": "32"}]}}}, "dtype": {"type": "DT_FLOAT"}}}, {"name": "StatefulPartitionedCall/sequential_3/densenet121/conv2_block3_concat/concat/axis", "op": "Const", "attr": {"value": {"tensor": {"dtype": "DT_INT32", "tensorShape": {}}}, "dtype": {"type": "DT_INT32"}}}, {"name": "StatefulPartitionedCall/sequential_3/densenet121/conv2_block4_2_conv/Conv2D/ReadVariableOp", "op": "Const", "attr": {"value": {"tensor": {"dtype": "DT_FLOAT", "tensorShape": {"dim": [{"size": "3"}, {"size": "3"}, {"size": "128"}, {"size": "32"}]}}}, "dtype": {"type": "DT_FLOAT"}}}, {"name": "StatefulPartitionedCall/sequential_3/densenet121/conv2_block4_concat/concat/axis", "op": "Const", "attr": {"value": {"tensor": {"dtype": "DT_INT32", "tensorShape": {}}}, "dtype": {"type": "DT_INT32"}}}, {"name": "StatefulPartitionedCall/sequential_3/densenet121/conv2_block5_2_conv/Conv2D/ReadVariableOp", "op": "Const", "attr": {"dtype": {"type": "DT_FLOAT"}, "value": {"tensor": {"dtype": "DT_FLOAT", "tensorShape": {"dim": [{"size": "3"}, {"size": "3"}, {"size": "128"}, {"size": "32"}]}}}}}, {"name": "StatefulPartitionedCall/sequential_3/densenet121/conv2_block5_concat/concat/axis", "op": "Const", "attr": {"value": {"tensor": {"dtype": "DT_INT32", "tensorShape": {}}}, "dtype": {"type": "DT_INT32"}}}, {"name": "StatefulPartitionedCall/sequential_3/densenet121/conv2_block6_2_conv/Conv2D/ReadVariableOp", "op": "Const", "attr": {"dtype": {"type": "DT_FLOAT"}, "value": {"tensor": {"dtype": "DT_FLOAT", "tensorShape": {"dim": [{"size": "3"}, {"size": "3"}, {"size": "128"}, {"size": "32"}]}}}}}, {"name": "StatefulPartitionedCall/sequential_3/densenet121/conv2_block6_concat/concat/axis", "op": "Const", "attr": {"dtype": {"type": "DT_INT32"}, "value": {"tensor": {"dtype": "DT_INT32", "tensorShape": {}}}}}, {"name": "StatefulPartitionedCall/sequential_3/densenet121/pool2_conv/Conv2D/ReadVariableOp", "op": "Const", "attr": {"dtype": {"type": "DT_FLOAT"}, "value": {"tensor": {"dtype": "DT_FLOAT", "tensorShape": {"dim": [{"size": "1"}, {"size": "1"}, {"size": "256"}, {"size": "128"}]}}}}}, {"name": "StatefulPartitionedCall/sequential_3/densenet121/conv3_block1_2_conv/Conv2D/ReadVariableOp", "op": "Const", "attr": {"dtype": {"type": "DT_FLOAT"}, "value": {"tensor": {"dtype": "DT_FLOAT", "tensorShape": {"dim": [{"size": "3"}, {"size": "3"}, {"size": "128"}, {"size": "32"}]}}}}}, {"name": "StatefulPartitionedCall/sequential_3/densenet121/conv3_block1_concat/concat/axis", "op": "Const", "attr": {"value": {"tensor": {"dtype": "DT_INT32", "tensorShape": {}}}, "dtype": {"type": "DT_INT32"}}}, {"name": "StatefulPartitionedCall/sequential_3/densenet121/conv3_block2_2_conv/Conv2D/ReadVariableOp", "op": "Const", "attr": {"value": {"tensor": {"dtype": "DT_FLOAT", "tensorShape": {"dim": [{"size": "3"}, {"size": "3"}, {"size": "128"}, {"size": "32"}]}}}, "dtype": {"type": "DT_FLOAT"}}}, {"name": "StatefulPartitionedCall/sequential_3/densenet121/conv3_block2_concat/concat/axis", "op": "Const", "attr": {"dtype": {"type": "DT_INT32"}, "value": {"tensor": {"dtype": "DT_INT32", "tensorShape": {}}}}}, {"name": "StatefulPartitionedCall/sequential_3/densenet121/conv3_block3_2_conv/Conv2D/ReadVariableOp", "op": "Const", "attr": {"dtype": {"type": "DT_FLOAT"}, "value": {"tensor": {"dtype": "DT_FLOAT", "tensorShape": {"dim": [{"size": "3"}, {"size": "3"}, {"size": "128"}, {"size": "32"}]}}}}}, {"name": "StatefulPartitionedCall/sequential_3/densenet121/conv3_block3_concat/concat/axis", "op": "Const", "attr": {"value": {"tensor": {"dtype": "DT_INT32", "tensorShape": {}}}, "dtype": {"type": "DT_INT32"}}}, {"name": "StatefulPartitionedCall/sequential_3/densenet121/conv3_block4_2_conv/Conv2D/ReadVariableOp", "op": "Const", "attr": {"value": {"tensor": {"dtype": "DT_FLOAT", "tensorShape": {"dim": [{"size": "3"}, {"size": "3"}, {"size": "128"}, {"size": "32"}]}}}, "dtype": {"type": "DT_FLOAT"}}}, {"name": "StatefulPartitionedCall/sequential_3/densenet121/conv3_block4_concat/concat/axis", "op": "Const", "attr": {"value": {"tensor": {"dtype": "DT_INT32", "tensorShape": {}}}, "dtype": {"type": "DT_INT32"}}}, {"name": "StatefulPartitionedCall/sequential_3/densenet121/conv3_block5_2_conv/Conv2D/ReadVariableOp", "op": "Const", "attr": {"dtype": {"type": "DT_FLOAT"}, "value": {"tensor": {"dtype": "DT_FLOAT", "tensorShape": {"dim": [{"size": "3"}, {"size": "3"}, {"size": "128"}, {"size": "32"}]}}}}}, {"name": "StatefulPartitionedCall/sequential_3/densenet121/conv3_block5_concat/concat/axis", "op": "Const", "attr": {"dtype": {"type": "DT_INT32"}, "value": {"tensor": {"dtype": "DT_INT32", "tensorShape": {}}}}}, {"name": "StatefulPartitionedCall/sequential_3/densenet121/conv3_block6_2_conv/Conv2D/ReadVariableOp", "op": "Const", "attr": {"value": {"tensor": {"dtype": "DT_FLOAT", "tensorShape": {"dim": [{"size": "3"}, {"size": "3"}, {"size": "128"}, {"size": "32"}]}}}, "dtype": {"type": "DT_FLOAT"}}}, {"name": "StatefulPartitionedCall/sequential_3/densenet121/conv3_block6_concat/concat/axis", "op": "Const", "attr": {"dtype": {"type": "DT_INT32"}, "value": {"tensor": {"dtype": "DT_INT32", "tensorShape": {}}}}}, {"name": "StatefulPartitionedCall/sequential_3/densenet121/conv3_block7_2_conv/Conv2D/ReadVariableOp", "op": "Const", "attr": {"value": {"tensor": {"dtype": "DT_FLOAT", "tensorShape": {"dim": [{"size": "3"}, {"size": "3"}, {"size": "128"}, {"size": "32"}]}}}, "dtype": {"type": "DT_FLOAT"}}}, {"name": "StatefulPartitionedCall/sequential_3/densenet121/conv3_block7_concat/concat/axis", "op": "Const", "attr": {"value": {"tensor": {"dtype": "DT_INT32", "tensorShape": {}}}, "dtype": {"type": "DT_INT32"}}}, {"name": "StatefulPartitionedCall/sequential_3/densenet121/conv3_block8_2_conv/Conv2D/ReadVariableOp", "op": "Const", "attr": {"value": {"tensor": {"dtype": "DT_FLOAT", "tensorShape": {"dim": [{"size": "3"}, {"size": "3"}, {"size": "128"}, {"size": "32"}]}}}, "dtype": {"type": "DT_FLOAT"}}}, {"name": "StatefulPartitionedCall/sequential_3/densenet121/conv3_block8_concat/concat/axis", "op": "Const", "attr": {"dtype": {"type": "DT_INT32"}, "value": {"tensor": {"dtype": "DT_INT32", "tensorShape": {}}}}}, {"name": "StatefulPartitionedCall/sequential_3/densenet121/conv3_block9_2_conv/Conv2D/ReadVariableOp", "op": "Const", "attr": {"dtype": {"type": "DT_FLOAT"}, "value": {"tensor": {"dtype": "DT_FLOAT", "tensorShape": {"dim": [{"size": "3"}, {"size": "3"}, {"size": "128"}, {"size": "32"}]}}}}}, {"name": "StatefulPartitionedCall/sequential_3/densenet121/conv3_block9_concat/concat/axis", "op": "Const", "attr": {"dtype": {"type": "DT_INT32"}, "value": {"tensor": {"dtype": "DT_INT32", "tensorShape": {}}}}}, {"name": "StatefulPartitionedCall/sequential_3/densenet121/conv3_block10_2_conv/Conv2D/ReadVariableOp", "op": "Const", "attr": {"value": {"tensor": {"dtype": "DT_FLOAT", "tensorShape": {"dim": [{"size": "3"}, {"size": "3"}, {"size": "128"}, {"size": "32"}]}}}, "dtype": {"type": "DT_FLOAT"}}}, {"name": "StatefulPartitionedCall/sequential_3/densenet121/conv3_block10_concat/concat/axis", "op": "Const", "attr": {"value": {"tensor": {"dtype": "DT_INT32", "tensorShape": {}}}, "dtype": {"type": "DT_INT32"}}}, {"name": "StatefulPartitionedCall/sequential_3/densenet121/conv3_block11_2_conv/Conv2D/ReadVariableOp", "op": "Const", "attr": {"dtype": {"type": "DT_FLOAT"}, "value": {"tensor": {"dtype": "DT_FLOAT", "tensorShape": {"dim": [{"size": "3"}, {"size": "3"}, {"size": "128"}, {"size": "32"}]}}}}}, {"name": "StatefulPartitionedCall/sequential_3/densenet121/conv3_block11_concat/concat/axis", "op": "Const", "attr": {"dtype": {"type": "DT_INT32"}, "value": {"tensor": {"dtype": "DT_INT32", "tensorShape": {}}}}}, {"name": "StatefulPartitionedCall/sequential_3/densenet121/conv3_block12_2_conv/Conv2D/ReadVariableOp", "op": "Const", "attr": {"dtype": {"type": "DT_FLOAT"}, "value": {"tensor": {"dtype": "DT_FLOAT", "tensorShape": {"dim": [{"size": "3"}, {"size": "3"}, {"size": "128"}, {"size": "32"}]}}}}}, {"name": "StatefulPartitionedCall/sequential_3/densenet121/conv3_block12_concat/concat/axis", "op": "Const", "attr": {"value": {"tensor": {"dtype": "DT_INT32", "tensorShape": {}}}, "dtype": {"type": "DT_INT32"}}}, {"name": "StatefulPartitionedCall/sequential_3/densenet121/pool3_conv/Conv2D/ReadVariableOp", "op": "Const", "attr": {"value": {"tensor": {"dtype": "DT_FLOAT", "tensorShape": {"dim": [{"size": "1"}, {"size": "1"}, {"size": "512"}, {"size": "256"}]}}}, "dtype": {"type": "DT_FLOAT"}}}, {"name": "StatefulPartitionedCall/sequential_3/densenet121/conv4_block1_2_conv/Conv2D/ReadVariableOp", "op": "Const", "attr": {"dtype": {"type": "DT_FLOAT"}, "value": {"tensor": {"dtype": "DT_FLOAT", "tensorShape": {"dim": [{"size": "3"}, {"size": "3"}, {"size": "128"}, {"size": "32"}]}}}}}, {"name": "StatefulPartitionedCall/sequential_3/densenet121/conv4_block1_concat/concat/axis", "op": "Const", "attr": {"dtype": {"type": "DT_INT32"}, "value": {"tensor": {"dtype": "DT_INT32", "tensorShape": {}}}}}, {"name": "StatefulPartitionedCall/sequential_3/densenet121/conv4_block2_2_conv/Conv2D/ReadVariableOp", "op": "Const", "attr": {"value": {"tensor": {"dtype": "DT_FLOAT", "tensorShape": {"dim": [{"size": "3"}, {"size": "3"}, {"size": "128"}, {"size": "32"}]}}}, "dtype": {"type": "DT_FLOAT"}}}, {"name": "StatefulPartitionedCall/sequential_3/densenet121/conv4_block2_concat/concat/axis", "op": "Const", "attr": {"value": {"tensor": {"dtype": "DT_INT32", "tensorShape": {}}}, "dtype": {"type": "DT_INT32"}}}, {"name": "StatefulPartitionedCall/sequential_3/densenet121/conv4_block3_2_conv/Conv2D/ReadVariableOp", "op": "Const", "attr": {"dtype": {"type": "DT_FLOAT"}, "value": {"tensor": {"dtype": "DT_FLOAT", "tensorShape": {"dim": [{"size": "3"}, {"size": "3"}, {"size": "128"}, {"size": "32"}]}}}}}, {"name": "StatefulPartitionedCall/sequential_3/densenet121/conv4_block3_concat/concat/axis", "op": "Const", "attr": {"dtype": {"type": "DT_INT32"}, "value": {"tensor": {"dtype": "DT_INT32", "tensorShape": {}}}}}, {"name": "StatefulPartitionedCall/sequential_3/densenet121/conv4_block4_2_conv/Conv2D/ReadVariableOp", "op": "Const", "attr": {"value": {"tensor": {"dtype": "DT_FLOAT", "tensorShape": {"dim": [{"size": "3"}, {"size": "3"}, {"size": "128"}, {"size": "32"}]}}}, "dtype": {"type": "DT_FLOAT"}}}, {"name": "StatefulPartitionedCall/sequential_3/densenet121/conv4_block4_concat/concat/axis", "op": "Const", "attr": {"value": {"tensor": {"dtype": "DT_INT32", "tensorShape": {}}}, "dtype": {"type": "DT_INT32"}}}, {"name": "StatefulPartitionedCall/sequential_3/densenet121/conv4_block5_2_conv/Conv2D/ReadVariableOp", "op": "Const", "attr": {"dtype": {"type": "DT_FLOAT"}, "value": {"tensor": {"dtype": "DT_FLOAT", "tensorShape": {"dim": [{"size": "3"}, {"size": "3"}, {"size": "128"}, {"size": "32"}]}}}}}, {"name": "StatefulPartitionedCall/sequential_3/densenet121/conv4_block5_concat/concat/axis", "op": "Const", "attr": {"value": {"tensor": {"dtype": "DT_INT32", "tensorShape": {}}}, "dtype": {"type": "DT_INT32"}}}, {"name": "StatefulPartitionedCall/sequential_3/densenet121/conv4_block6_2_conv/Conv2D/ReadVariableOp", "op": "Const", "attr": {"dtype": {"type": "DT_FLOAT"}, "value": {"tensor": {"dtype": "DT_FLOAT", "tensorShape": {"dim": [{"size": "3"}, {"size": "3"}, {"size": "128"}, {"size": "32"}]}}}}}, {"name": "StatefulPartitionedCall/sequential_3/densenet121/conv4_block6_concat/concat/axis", "op": "Const", "attr": {"value": {"tensor": {"dtype": "DT_INT32", "tensorShape": {}}}, "dtype": {"type": "DT_INT32"}}}, {"name": "StatefulPartitionedCall/sequential_3/densenet121/conv4_block7_2_conv/Conv2D/ReadVariableOp", "op": "Const", "attr": {"dtype": {"type": "DT_FLOAT"}, "value": {"tensor": {"dtype": "DT_FLOAT", "tensorShape": {"dim": [{"size": "3"}, {"size": "3"}, {"size": "128"}, {"size": "32"}]}}}}}, {"name": "StatefulPartitionedCall/sequential_3/densenet121/conv4_block7_concat/concat/axis", "op": "Const", "attr": {"dtype": {"type": "DT_INT32"}, "value": {"tensor": {"dtype": "DT_INT32", "tensorShape": {}}}}}, {"name": "StatefulPartitionedCall/sequential_3/densenet121/conv4_block8_2_conv/Conv2D/ReadVariableOp", "op": "Const", "attr": {"dtype": {"type": "DT_FLOAT"}, "value": {"tensor": {"dtype": "DT_FLOAT", "tensorShape": {"dim": [{"size": "3"}, {"size": "3"}, {"size": "128"}, {"size": "32"}]}}}}}, {"name": "StatefulPartitionedCall/sequential_3/densenet121/conv4_block8_concat/concat/axis", "op": "Const", "attr": {"value": {"tensor": {"dtype": "DT_INT32", "tensorShape": {}}}, "dtype": {"type": "DT_INT32"}}}, {"name": "StatefulPartitionedCall/sequential_3/densenet121/conv4_block9_2_conv/Conv2D/ReadVariableOp", "op": "Const", "attr": {"value": {"tensor": {"dtype": "DT_FLOAT", "tensorShape": {"dim": [{"size": "3"}, {"size": "3"}, {"size": "128"}, {"size": "32"}]}}}, "dtype": {"type": "DT_FLOAT"}}}, {"name": "StatefulPartitionedCall/sequential_3/densenet121/conv4_block9_concat/concat/axis", "op": "Const", "attr": {"value": {"tensor": {"dtype": "DT_INT32", "tensorShape": {}}}, "dtype": {"type": "DT_INT32"}}}, {"name": "StatefulPartitionedCall/sequential_3/densenet121/conv4_block10_2_conv/Conv2D/ReadVariableOp", "op": "Const", "attr": {"dtype": {"type": "DT_FLOAT"}, "value": {"tensor": {"dtype": "DT_FLOAT", "tensorShape": {"dim": [{"size": "3"}, {"size": "3"}, {"size": "128"}, {"size": "32"}]}}}}}, {"name": "StatefulPartitionedCall/sequential_3/densenet121/conv4_block10_concat/concat/axis", "op": "Const", "attr": {"dtype": {"type": "DT_INT32"}, "value": {"tensor": {"dtype": "DT_INT32", "tensorShape": {}}}}}, {"name": "StatefulPartitionedCall/sequential_3/densenet121/conv4_block11_2_conv/Conv2D/ReadVariableOp", "op": "Const", "attr": {"dtype": {"type": "DT_FLOAT"}, "value": {"tensor": {"dtype": "DT_FLOAT", "tensorShape": {"dim": [{"size": "3"}, {"size": "3"}, {"size": "128"}, {"size": "32"}]}}}}}, {"name": "StatefulPartitionedCall/sequential_3/densenet121/conv4_block11_concat/concat/axis", "op": "Const", "attr": {"value": {"tensor": {"dtype": "DT_INT32", "tensorShape": {}}}, "dtype": {"type": "DT_INT32"}}}, {"name": "StatefulPartitionedCall/sequential_3/densenet121/conv4_block12_2_conv/Conv2D/ReadVariableOp", "op": "Const", "attr": {"dtype": {"type": "DT_FLOAT"}, "value": {"tensor": {"dtype": "DT_FLOAT", "tensorShape": {"dim": [{"size": "3"}, {"size": "3"}, {"size": "128"}, {"size": "32"}]}}}}}, {"name": "StatefulPartitionedCall/sequential_3/densenet121/conv4_block12_concat/concat/axis", "op": "Const", "attr": {"value": {"tensor": {"dtype": "DT_INT32", "tensorShape": {}}}, "dtype": {"type": "DT_INT32"}}}, {"name": "StatefulPartitionedCall/sequential_3/densenet121/conv4_block13_2_conv/Conv2D/ReadVariableOp", "op": "Const", "attr": {"value": {"tensor": {"dtype": "DT_FLOAT", "tensorShape": {"dim": [{"size": "3"}, {"size": "3"}, {"size": "128"}, {"size": "32"}]}}}, "dtype": {"type": "DT_FLOAT"}}}, {"name": "StatefulPartitionedCall/sequential_3/densenet121/conv4_block13_concat/concat/axis", "op": "Const", "attr": {"dtype": {"type": "DT_INT32"}, "value": {"tensor": {"dtype": "DT_INT32", "tensorShape": {}}}}}, {"name": "StatefulPartitionedCall/sequential_3/densenet121/conv4_block14_2_conv/Conv2D/ReadVariableOp", "op": "Const", "attr": {"value": {"tensor": {"dtype": "DT_FLOAT", "tensorShape": {"dim": [{"size": "3"}, {"size": "3"}, {"size": "128"}, {"size": "32"}]}}}, "dtype": {"type": "DT_FLOAT"}}}, {"name": "StatefulPartitionedCall/sequential_3/densenet121/conv4_block14_concat/concat/axis", "op": "Const", "attr": {"dtype": {"type": "DT_INT32"}, "value": {"tensor": {"dtype": "DT_INT32", "tensorShape": {}}}}}, {"name": "StatefulPartitionedCall/sequential_3/densenet121/conv4_block15_2_conv/Conv2D/ReadVariableOp", "op": "Const", "attr": {"value": {"tensor": {"dtype": "DT_FLOAT", "tensorShape": {"dim": [{"size": "3"}, {"size": "3"}, {"size": "128"}, {"size": "32"}]}}}, "dtype": {"type": "DT_FLOAT"}}}, {"name": "StatefulPartitionedCall/sequential_3/densenet121/conv4_block15_concat/concat/axis", "op": "Const", "attr": {"dtype": {"type": "DT_INT32"}, "value": {"tensor": {"dtype": "DT_INT32", "tensorShape": {}}}}}, {"name": "StatefulPartitionedCall/sequential_3/densenet121/conv4_block16_2_conv/Conv2D/ReadVariableOp", "op": "Const", "attr": {"value": {"tensor": {"dtype": "DT_FLOAT", "tensorShape": {"dim": [{"size": "3"}, {"size": "3"}, {"size": "128"}, {"size": "32"}]}}}, "dtype": {"type": "DT_FLOAT"}}}, {"name": "StatefulPartitionedCall/sequential_3/densenet121/conv4_block16_concat/concat/axis", "op": "Const", "attr": {"dtype": {"type": "DT_INT32"}, "value": {"tensor": {"dtype": "DT_INT32", "tensorShape": {}}}}}, {"name": "StatefulPartitionedCall/sequential_3/densenet121/conv4_block17_2_conv/Conv2D/ReadVariableOp", "op": "Const", "attr": {"dtype": {"type": "DT_FLOAT"}, "value": {"tensor": {"dtype": "DT_FLOAT", "tensorShape": {"dim": [{"size": "3"}, {"size": "3"}, {"size": "128"}, {"size": "32"}]}}}}}, {"name": "StatefulPartitionedCall/sequential_3/densenet121/conv4_block17_concat/concat/axis", "op": "Const", "attr": {"value": {"tensor": {"dtype": "DT_INT32", "tensorShape": {}}}, "dtype": {"type": "DT_INT32"}}}, {"name": "StatefulPartitionedCall/sequential_3/densenet121/conv4_block18_2_conv/Conv2D/ReadVariableOp", "op": "Const", "attr": {"dtype": {"type": "DT_FLOAT"}, "value": {"tensor": {"dtype": "DT_FLOAT", "tensorShape": {"dim": [{"size": "3"}, {"size": "3"}, {"size": "128"}, {"size": "32"}]}}}}}, {"name": "StatefulPartitionedCall/sequential_3/densenet121/conv4_block18_concat/concat/axis", "op": "Const", "attr": {"dtype": {"type": "DT_INT32"}, "value": {"tensor": {"dtype": "DT_INT32", "tensorShape": {}}}}}, {"name": "StatefulPartitionedCall/sequential_3/densenet121/conv4_block19_2_conv/Conv2D/ReadVariableOp", "op": "Const", "attr": {"dtype": {"type": "DT_FLOAT"}, "value": {"tensor": {"dtype": "DT_FLOAT", "tensorShape": {"dim": [{"size": "3"}, {"size": "3"}, {"size": "128"}, {"size": "32"}]}}}}}, {"name": "StatefulPartitionedCall/sequential_3/densenet121/conv4_block19_concat/concat/axis", "op": "Const", "attr": {"dtype": {"type": "DT_INT32"}, "value": {"tensor": {"dtype": "DT_INT32", "tensorShape": {}}}}}, {"name": "StatefulPartitionedCall/sequential_3/densenet121/conv4_block20_2_conv/Conv2D/ReadVariableOp", "op": "Const", "attr": {"dtype": {"type": "DT_FLOAT"}, "value": {"tensor": {"dtype": "DT_FLOAT", "tensorShape": {"dim": [{"size": "3"}, {"size": "3"}, {"size": "128"}, {"size": "32"}]}}}}}, {"name": "StatefulPartitionedCall/sequential_3/densenet121/conv4_block20_concat/concat/axis", "op": "Const", "attr": {"dtype": {"type": "DT_INT32"}, "value": {"tensor": {"dtype": "DT_INT32", "tensorShape": {}}}}}, {"name": "StatefulPartitionedCall/sequential_3/densenet121/conv4_block21_2_conv/Conv2D/ReadVariableOp", "op": "Const", "attr": {"dtype": {"type": "DT_FLOAT"}, "value": {"tensor": {"dtype": "DT_FLOAT", "tensorShape": {"dim": [{"size": "3"}, {"size": "3"}, {"size": "128"}, {"size": "32"}]}}}}}, {"name": "StatefulPartitionedCall/sequential_3/densenet121/conv4_block21_concat/concat/axis", "op": "Const", "attr": {"value": {"tensor": {"dtype": "DT_INT32", "tensorShape": {}}}, "dtype": {"type": "DT_INT32"}}}, {"name": "StatefulPartitionedCall/sequential_3/densenet121/conv4_block22_2_conv/Conv2D/ReadVariableOp", "op": "Const", "attr": {"dtype": {"type": "DT_FLOAT"}, "value": {"tensor": {"dtype": "DT_FLOAT", "tensorShape": {"dim": [{"size": "3"}, {"size": "3"}, {"size": "128"}, {"size": "32"}]}}}}}, {"name": "StatefulPartitionedCall/sequential_3/densenet121/conv4_block22_concat/concat/axis", "op": "Const", "attr": {"value": {"tensor": {"dtype": "DT_INT32", "tensorShape": {}}}, "dtype": {"type": "DT_INT32"}}}, {"name": "StatefulPartitionedCall/sequential_3/densenet121/conv4_block23_2_conv/Conv2D/ReadVariableOp", "op": "Const", "attr": {"value": {"tensor": {"dtype": "DT_FLOAT", "tensorShape": {"dim": [{"size": "3"}, {"size": "3"}, {"size": "128"}, {"size": "32"}]}}}, "dtype": {"type": "DT_FLOAT"}}}, {"name": "StatefulPartitionedCall/sequential_3/densenet121/conv4_block23_concat/concat/axis", "op": "Const", "attr": {"value": {"tensor": {"dtype": "DT_INT32", "tensorShape": {}}}, "dtype": {"type": "DT_INT32"}}}, {"name": "StatefulPartitionedCall/sequential_3/densenet121/conv4_block24_2_conv/Conv2D/ReadVariableOp", "op": "Const", "attr": {"dtype": {"type": "DT_FLOAT"}, "value": {"tensor": {"dtype": "DT_FLOAT", "tensorShape": {"dim": [{"size": "3"}, {"size": "3"}, {"size": "128"}, {"size": "32"}]}}}}}, {"name": "StatefulPartitionedCall/sequential_3/densenet121/conv4_block24_concat/concat/axis", "op": "Const", "attr": {"dtype": {"type": "DT_INT32"}, "value": {"tensor": {"dtype": "DT_INT32", "tensorShape": {}}}}}, {"name": "StatefulPartitionedCall/sequential_3/densenet121/pool4_conv/Conv2D/ReadVariableOp", "op": "Const", "attr": {"dtype": {"type": "DT_FLOAT"}, "value": {"tensor": {"dtype": "DT_FLOAT", "tensorShape": {"dim": [{"size": "1"}, {"size": "1"}, {"size": "1024"}, {"size": "512"}]}}}}}, {"name": "StatefulPartitionedCall/sequential_3/densenet121/conv5_block1_2_conv/Conv2D/ReadVariableOp", "op": "Const", "attr": {"value": {"tensor": {"dtype": "DT_FLOAT", "tensorShape": {"dim": [{"size": "3"}, {"size": "3"}, {"size": "128"}, {"size": "32"}]}}}, "dtype": {"type": "DT_FLOAT"}}}, {"name": "StatefulPartitionedCall/sequential_3/densenet121/conv5_block1_concat/concat/axis", "op": "Const", "attr": {"value": {"tensor": {"dtype": "DT_INT32", "tensorShape": {}}}, "dtype": {"type": "DT_INT32"}}}, {"name": "StatefulPartitionedCall/sequential_3/densenet121/conv5_block2_2_conv/Conv2D/ReadVariableOp", "op": "Const", "attr": {"value": {"tensor": {"dtype": "DT_FLOAT", "tensorShape": {"dim": [{"size": "3"}, {"size": "3"}, {"size": "128"}, {"size": "32"}]}}}, "dtype": {"type": "DT_FLOAT"}}}, {"name": "StatefulPartitionedCall/sequential_3/densenet121/conv5_block2_concat/concat/axis", "op": "Const", "attr": {"value": {"tensor": {"dtype": "DT_INT32", "tensorShape": {}}}, "dtype": {"type": "DT_INT32"}}}, {"name": "StatefulPartitionedCall/sequential_3/densenet121/conv5_block3_2_conv/Conv2D/ReadVariableOp", "op": "Const", "attr": {"dtype": {"type": "DT_FLOAT"}, "value": {"tensor": {"dtype": "DT_FLOAT", "tensorShape": {"dim": [{"size": "3"}, {"size": "3"}, {"size": "128"}, {"size": "32"}]}}}}}, {"name": "StatefulPartitionedCall/sequential_3/densenet121/conv5_block3_concat/concat/axis", "op": "Const", "attr": {"value": {"tensor": {"dtype": "DT_INT32", "tensorShape": {}}}, "dtype": {"type": "DT_INT32"}}}, {"name": "StatefulPartitionedCall/sequential_3/densenet121/conv5_block4_2_conv/Conv2D/ReadVariableOp", "op": "Const", "attr": {"value": {"tensor": {"dtype": "DT_FLOAT", "tensorShape": {"dim": [{"size": "3"}, {"size": "3"}, {"size": "128"}, {"size": "32"}]}}}, "dtype": {"type": "DT_FLOAT"}}}, {"name": "StatefulPartitionedCall/sequential_3/densenet121/conv5_block4_concat/concat/axis", "op": "Const", "attr": {"value": {"tensor": {"dtype": "DT_INT32", "tensorShape": {}}}, "dtype": {"type": "DT_INT32"}}}, {"name": "StatefulPartitionedCall/sequential_3/densenet121/conv5_block5_2_conv/Conv2D/ReadVariableOp", "op": "Const", "attr": {"value": {"tensor": {"dtype": "DT_FLOAT", "tensorShape": {"dim": [{"size": "3"}, {"size": "3"}, {"size": "128"}, {"size": "32"}]}}}, "dtype": {"type": "DT_FLOAT"}}}, {"name": "StatefulPartitionedCall/sequential_3/densenet121/conv5_block5_concat/concat/axis", "op": "Const", "attr": {"value": {"tensor": {"dtype": "DT_INT32", "tensorShape": {}}}, "dtype": {"type": "DT_INT32"}}}, {"name": "StatefulPartitionedCall/sequential_3/densenet121/conv5_block6_2_conv/Conv2D/ReadVariableOp", "op": "Const", "attr": {"dtype": {"type": "DT_FLOAT"}, "value": {"tensor": {"dtype": "DT_FLOAT", "tensorShape": {"dim": [{"size": "3"}, {"size": "3"}, {"size": "128"}, {"size": "32"}]}}}}}, {"name": "StatefulPartitionedCall/sequential_3/densenet121/conv5_block6_concat/concat/axis", "op": "Const", "attr": {"value": {"tensor": {"dtype": "DT_INT32", "tensorShape": {}}}, "dtype": {"type": "DT_INT32"}}}, {"name": "StatefulPartitionedCall/sequential_3/densenet121/conv5_block7_2_conv/Conv2D/ReadVariableOp", "op": "Const", "attr": {"dtype": {"type": "DT_FLOAT"}, "value": {"tensor": {"dtype": "DT_FLOAT", "tensorShape": {"dim": [{"size": "3"}, {"size": "3"}, {"size": "128"}, {"size": "32"}]}}}}}, {"name": "StatefulPartitionedCall/sequential_3/densenet121/conv5_block7_concat/concat/axis", "op": "Const", "attr": {"dtype": {"type": "DT_INT32"}, "value": {"tensor": {"dtype": "DT_INT32", "tensorShape": {}}}}}, {"name": "StatefulPartitionedCall/sequential_3/densenet121/conv5_block8_2_conv/Conv2D/ReadVariableOp", "op": "Const", "attr": {"value": {"tensor": {"dtype": "DT_FLOAT", "tensorShape": {"dim": [{"size": "3"}, {"size": "3"}, {"size": "128"}, {"size": "32"}]}}}, "dtype": {"type": "DT_FLOAT"}}}, {"name": "StatefulPartitionedCall/sequential_3/densenet121/conv5_block8_concat/concat/axis", "op": "Const", "attr": {"dtype": {"type": "DT_INT32"}, "value": {"tensor": {"dtype": "DT_INT32", "tensorShape": {}}}}}, {"name": "StatefulPartitionedCall/sequential_3/densenet121/conv5_block9_2_conv/Conv2D/ReadVariableOp", "op": "Const", "attr": {"dtype": {"type": "DT_FLOAT"}, "value": {"tensor": {"dtype": "DT_FLOAT", "tensorShape": {"dim": [{"size": "3"}, {"size": "3"}, {"size": "128"}, {"size": "32"}]}}}}}, {"name": "StatefulPartitionedCall/sequential_3/densenet121/conv5_block9_concat/concat/axis", "op": "Const", "attr": {"dtype": {"type": "DT_INT32"}, "value": {"tensor": {"dtype": "DT_INT32", "tensorShape": {}}}}}, {"name": "StatefulPartitionedCall/sequential_3/densenet121/conv5_block10_2_conv/Conv2D/ReadVariableOp", "op": "Const", "attr": {"value": {"tensor": {"dtype": "DT_FLOAT", "tensorShape": {"dim": [{"size": "3"}, {"size": "3"}, {"size": "128"}, {"size": "32"}]}}}, "dtype": {"type": "DT_FLOAT"}}}, {"name": "StatefulPartitionedCall/sequential_3/densenet121/conv5_block10_concat/concat/axis", "op": "Const", "attr": {"value": {"tensor": {"dtype": "DT_INT32", "tensorShape": {}}}, "dtype": {"type": "DT_INT32"}}}, {"name": "StatefulPartitionedCall/sequential_3/densenet121/conv5_block11_2_conv/Conv2D/ReadVariableOp", "op": "Const", "attr": {"value": {"tensor": {"dtype": "DT_FLOAT", "tensorShape": {"dim": [{"size": "3"}, {"size": "3"}, {"size": "128"}, {"size": "32"}]}}}, "dtype": {"type": "DT_FLOAT"}}}, {"name": "StatefulPartitionedCall/sequential_3/densenet121/conv5_block11_concat/concat/axis", "op": "Const", "attr": {"value": {"tensor": {"dtype": "DT_INT32", "tensorShape": {}}}, "dtype": {"type": "DT_INT32"}}}, {"name": "StatefulPartitionedCall/sequential_3/densenet121/conv5_block12_2_conv/Conv2D/ReadVariableOp", "op": "Const", "attr": {"value": {"tensor": {"dtype": "DT_FLOAT", "tensorShape": {"dim": [{"size": "3"}, {"size": "3"}, {"size": "128"}, {"size": "32"}]}}}, "dtype": {"type": "DT_FLOAT"}}}, {"name": "StatefulPartitionedCall/sequential_3/densenet121/conv5_block12_concat/concat/axis", "op": "Const", "attr": {"dtype": {"type": "DT_INT32"}, "value": {"tensor": {"dtype": "DT_INT32", "tensorShape": {}}}}}, {"name": "StatefulPartitionedCall/sequential_3/densenet121/conv5_block13_2_conv/Conv2D/ReadVariableOp", "op": "Const", "attr": {"dtype": {"type": "DT_FLOAT"}, "value": {"tensor": {"dtype": "DT_FLOAT", "tensorShape": {"dim": [{"size": "3"}, {"size": "3"}, {"size": "128"}, {"size": "32"}]}}}}}, {"name": "StatefulPartitionedCall/sequential_3/densenet121/conv5_block13_concat/concat/axis", "op": "Const", "attr": {"value": {"tensor": {"dtype": "DT_INT32", "tensorShape": {}}}, "dtype": {"type": "DT_INT32"}}}, {"name": "StatefulPartitionedCall/sequential_3/densenet121/conv5_block14_2_conv/Conv2D/ReadVariableOp", "op": "Const", "attr": {"dtype": {"type": "DT_FLOAT"}, "value": {"tensor": {"dtype": "DT_FLOAT", "tensorShape": {"dim": [{"size": "3"}, {"size": "3"}, {"size": "128"}, {"size": "32"}]}}}}}, {"name": "StatefulPartitionedCall/sequential_3/densenet121/conv5_block14_concat/concat/axis", "op": "Const", "attr": {"dtype": {"type": "DT_INT32"}, "value": {"tensor": {"dtype": "DT_INT32", "tensorShape": {}}}}}, {"name": "StatefulPartitionedCall/sequential_3/densenet121/conv5_block15_2_conv/Conv2D/ReadVariableOp", "op": "Const", "attr": {"dtype": {"type": "DT_FLOAT"}, "value": {"tensor": {"dtype": "DT_FLOAT", "tensorShape": {"dim": [{"size": "3"}, {"size": "3"}, {"size": "128"}, {"size": "32"}]}}}}}, {"name": "StatefulPartitionedCall/sequential_3/densenet121/conv5_block15_concat/concat/axis", "op": "Const", "attr": {"dtype": {"type": "DT_INT32"}, "value": {"tensor": {"dtype": "DT_INT32", "tensorShape": {}}}}}, {"name": "StatefulPartitionedCall/sequential_3/densenet121/conv5_block16_2_conv/Conv2D/ReadVariableOp", "op": "Const", "attr": {"dtype": {"type": "DT_FLOAT"}, "value": {"tensor": {"dtype": "DT_FLOAT", "tensorShape": {"dim": [{"size": "3"}, {"size": "3"}, {"size": "128"}, {"size": "32"}]}}}}}, {"name": "StatefulPartitionedCall/sequential_3/densenet121/conv5_block16_concat/concat/axis", "op": "Const", "attr": {"value": {"tensor": {"dtype": "DT_INT32", "tensorShape": {}}}, "dtype": {"type": "DT_INT32"}}}, {"name": "StatefulPartitionedCall/sequential_3/densenet121/avg_pool/Mean/reduction_indices", "op": "Const", "attr": {"dtype": {"type": "DT_INT32"}, "value": {"tensor": {"dtype": "DT_INT32", "tensorShape": {"dim": [{"size": "2"}]}}}}}, {"name": "StatefulPartitionedCall/sequential_3/densenet121/predictions/MatMul/ReadVariableOp", "op": "Const", "attr": {"dtype": {"type": "DT_FLOAT"}, "value": {"tensor": {"dtype": "DT_FLOAT", "tensorShape": {"dim": [{"size": "1024"}, {"size": "1000"}]}}}}}, {"name": "StatefulPartitionedCall/sequential_3/densenet121/predictions/BiasAdd/ReadVariableOp", "op": "Const", "attr": {"dtype": {"type": "DT_FLOAT"}, "value": {"tensor": {"dtype": "DT_FLOAT", "tensorShape": {"dim": [{"size": "1000"}]}}}}}, {"name": "StatefulPartitionedCall/sequential_3/dense_6/MatMul/ReadVariableOp", "op": "Const", "attr": {"dtype": {"type": "DT_FLOAT"}, "value": {"tensor": {"dtype": "DT_FLOAT", "tensorShape": {"dim": [{"size": "1000"}, {"size": "100"}]}}}}}, {"name": "StatefulPartitionedCall/sequential_3/dense_6/BiasAdd/ReadVariableOp", "op": "Const", "attr": {"dtype": {"type": "DT_FLOAT"}, "value": {"tensor": {"dtype": "DT_FLOAT", "tensorShape": {"dim": [{"size": "100"}]}}}}}, {"name": "StatefulPartitionedCall/sequential_3/dense_7/MatMul/ReadVariableOp", "op": "Const", "attr": {"value": {"tensor": {"dtype": "DT_FLOAT", "tensorShape": {"dim": [{"size": "100"}, {"size": "5"}]}}}, "dtype": {"type": "DT_FLOAT"}}}, {"name": "StatefulPartitionedCall/sequential_3/dense_7/BiasAdd/ReadVariableOp", "op": "Const", "attr": {"dtype": {"type": "DT_FLOAT"}, "value": {"tensor": {"dtype": "DT_FLOAT", "tensorShape": {"dim": [{"size": "5"}]}}}}}, {"name": "densenet121_input", "op": "Placeholder", "attr": {"dtype": {"type": "DT_FLOAT"}, "shape": {"shape": {"dim": [{"size": "-1"}, {"size": "224"}, {"size": "224"}, {"size": "3"}]}}}}, {"name": "StatefulPartitionedCall/sequential_3/densenet121/conv1/conv/Conv2D_weights", "op": "Const", "attr": {"value": {"tensor": {"dtype": "DT_FLOAT", "tensorShape": {"dim": [{"size": "7"}, {"size": "7"}, {"size": "3"}, {"size": "64"}]}}}, "dtype": {"type": "DT_FLOAT"}}}, {"name": "StatefulPartitionedCall/sequential_3/densenet121/conv1/conv/Conv2D_bn_offset", "op": "Const", "attr": {"dtype": {"type": "DT_FLOAT"}, "value": {"tensor": {"dtype": "DT_FLOAT", "tensorShape": {"dim": [{"size": "64"}]}}}}}, {"name": "StatefulPartitionedCall/sequential_3/densenet121/conv2_block1_1_conv/Conv2D_weights", "op": "Const", "attr": {"value": {"tensor": {"dtype": "DT_FLOAT", "tensorShape": {"dim": [{"size": "1"}, {"size": "1"}, {"size": "64"}, {"size": "128"}]}}}, "dtype": {"type": "DT_FLOAT"}}}, {"name": "StatefulPartitionedCall/sequential_3/densenet121/conv3_block11_0_bn/FusedBatchNormV3/Offset", "op": "Const", "attr": {"dtype": {"type": "DT_FLOAT"}, "value": {"tensor": {"dtype": "DT_FLOAT", "tensorShape": {"dim": [{"size": "448"}]}}}}}, {"name": "StatefulPartitionedCall/sequential_3/densenet121/conv2_block1_1_conv/Conv2D_bn_offset", "op": "Const", "attr": {"value": {"tensor": {"dtype": "DT_FLOAT", "tensorShape": {"dim": [{"size": "128"}]}}}, "dtype": {"type": "DT_FLOAT"}}}, {"name": "StatefulPartitionedCall/sequential_3/densenet121/conv2_block2_1_conv/Conv2D_weights", "op": "Const", "attr": {"dtype": {"type": "DT_FLOAT"}, "value": {"tensor": {"dtype": "DT_FLOAT", "tensorShape": {"dim": [{"size": "1"}, {"size": "1"}, {"size": "96"}, {"size": "128"}]}}}}}, {"name": "StatefulPartitionedCall/sequential_3/densenet121/conv2_block2_1_conv/Conv2D_bn_offset", "op": "Const", "attr": {"value": {"tensor": {"dtype": "DT_FLOAT", "tensorShape": {"dim": [{"size": "128"}]}}}, "dtype": {"type": "DT_FLOAT"}}}, {"name": "StatefulPartitionedCall/sequential_3/densenet121/conv2_block3_1_conv/Conv2D_weights", "op": "Const", "attr": {"value": {"tensor": {"dtype": "DT_FLOAT", "tensorShape": {"dim": [{"size": "1"}, {"size": "1"}, {"size": "128"}, {"size": "128"}]}}}, "dtype": {"type": "DT_FLOAT"}}}, {"name": "StatefulPartitionedCall/sequential_3/densenet121/conv3_block10_0_bn/FusedBatchNormV3/Scaled", "op": "Const", "attr": {"value": {"tensor": {"dtype": "DT_FLOAT", "tensorShape": {"dim": [{"size": "416"}]}}}, "dtype": {"type": "DT_FLOAT"}}}, {"name": "StatefulPartitionedCall/sequential_3/densenet121/conv2_block3_1_conv/Conv2D_bn_offset", "op": "Const", "attr": {"dtype": {"type": "DT_FLOAT"}, "value": {"tensor": {"dtype": "DT_FLOAT", "tensorShape": {"dim": [{"size": "128"}]}}}}}, {"name": "StatefulPartitionedCall/sequential_3/densenet121/conv2_block4_1_conv/Conv2D_weights", "op": "Const", "attr": {"dtype": {"type": "DT_FLOAT"}, "value": {"tensor": {"dtype": "DT_FLOAT", "tensorShape": {"dim": [{"size": "1"}, {"size": "1"}, {"size": "160"}, {"size": "128"}]}}}}}, {"name": "StatefulPartitionedCall/sequential_3/densenet121/conv2_block4_1_conv/Conv2D_bn_offset", "op": "Const", "attr": {"dtype": {"type": "DT_FLOAT"}, "value": {"tensor": {"dtype": "DT_FLOAT", "tensorShape": {"dim": [{"size": "128"}]}}}}}, {"name": "StatefulPartitionedCall/sequential_3/densenet121/conv3_block10_0_bn/FusedBatchNormV3/Offset", "op": "Const", "attr": {"value": {"tensor": {"dtype": "DT_FLOAT", "tensorShape": {"dim": [{"size": "416"}]}}}, "dtype": {"type": "DT_FLOAT"}}}, {"name": "StatefulPartitionedCall/sequential_3/densenet121/conv2_block5_1_conv/Conv2D_weights", "op": "Const", "attr": {"dtype": {"type": "DT_FLOAT"}, "value": {"tensor": {"dtype": "DT_FLOAT", "tensorShape": {"dim": [{"size": "1"}, {"size": "1"}, {"size": "192"}, {"size": "128"}]}}}}}, {"name": "StatefulPartitionedCall/sequential_3/densenet121/conv2_block5_1_conv/Conv2D_bn_offset", "op": "Const", "attr": {"dtype": {"type": "DT_FLOAT"}, "value": {"tensor": {"dtype": "DT_FLOAT", "tensorShape": {"dim": [{"size": "128"}]}}}}}, {"name": "StatefulPartitionedCall/sequential_3/densenet121/conv2_block6_1_conv/Conv2D_weights", "op": "Const", "attr": {"dtype": {"type": "DT_FLOAT"}, "value": {"tensor": {"dtype": "DT_FLOAT", "tensorShape": {"dim": [{"size": "1"}, {"size": "1"}, {"size": "224"}, {"size": "128"}]}}}}}, {"name": "StatefulPartitionedCall/sequential_3/densenet121/conv2_block6_1_conv/Conv2D_bn_offset", "op": "Const", "attr": {"value": {"tensor": {"dtype": "DT_FLOAT", "tensorShape": {"dim": [{"size": "128"}]}}}, "dtype": {"type": "DT_FLOAT"}}}, {"name": "StatefulPartitionedCall/sequential_3/densenet121/conv3_block9_0_bn/FusedBatchNormV3/Scaled", "op": "Const", "attr": {"dtype": {"type": "DT_FLOAT"}, "value": {"tensor": {"dtype": "DT_FLOAT", "tensorShape": {"dim": [{"size": "384"}]}}}}}, {"name": "StatefulPartitionedCall/sequential_3/densenet121/conv3_block1_1_conv/Conv2D_weights", "op": "Const", "attr": {"dtype": {"type": "DT_FLOAT"}, "value": {"tensor": {"dtype": "DT_FLOAT", "tensorShape": {"dim": [{"size": "1"}, {"size": "1"}, {"size": "128"}, {"size": "128"}]}}}}}, {"name": "StatefulPartitionedCall/sequential_3/densenet121/conv3_block1_1_conv/Conv2D_bn_offset", "op": "Const", "attr": {"dtype": {"type": "DT_FLOAT"}, "value": {"tensor": {"dtype": "DT_FLOAT", "tensorShape": {"dim": [{"size": "128"}]}}}}}, {"name": "StatefulPartitionedCall/sequential_3/densenet121/conv3_block2_1_conv/Conv2D_weights", "op": "Const", "attr": {"value": {"tensor": {"dtype": "DT_FLOAT", "tensorShape": {"dim": [{"size": "1"}, {"size": "1"}, {"size": "160"}, {"size": "128"}]}}}, "dtype": {"type": "DT_FLOAT"}}}, {"name": "StatefulPartitionedCall/sequential_3/densenet121/conv3_block9_0_bn/FusedBatchNormV3/Offset", "op": "Const", "attr": {"value": {"tensor": {"dtype": "DT_FLOAT", "tensorShape": {"dim": [{"size": "384"}]}}}, "dtype": {"type": "DT_FLOAT"}}}, {"name": "StatefulPartitionedCall/sequential_3/densenet121/conv3_block2_1_conv/Conv2D_bn_offset", "op": "Const", "attr": {"dtype": {"type": "DT_FLOAT"}, "value": {"tensor": {"dtype": "DT_FLOAT", "tensorShape": {"dim": [{"size": "128"}]}}}}}, {"name": "StatefulPartitionedCall/sequential_3/densenet121/conv3_block3_1_conv/Conv2D_weights", "op": "Const", "attr": {"dtype": {"type": "DT_FLOAT"}, "value": {"tensor": {"dtype": "DT_FLOAT", "tensorShape": {"dim": [{"size": "1"}, {"size": "1"}, {"size": "192"}, {"size": "128"}]}}}}}, {"name": "StatefulPartitionedCall/sequential_3/densenet121/conv3_block3_1_conv/Conv2D_bn_offset", "op": "Const", "attr": {"dtype": {"type": "DT_FLOAT"}, "value": {"tensor": {"dtype": "DT_FLOAT", "tensorShape": {"dim": [{"size": "128"}]}}}}}, {"name": "StatefulPartitionedCall/sequential_3/densenet121/conv3_block4_1_conv/Conv2D_weights", "op": "Const", "attr": {"dtype": {"type": "DT_FLOAT"}, "value": {"tensor": {"dtype": "DT_FLOAT", "tensorShape": {"dim": [{"size": "1"}, {"size": "1"}, {"size": "224"}, {"size": "128"}]}}}}}, {"name": "StatefulPartitionedCall/sequential_3/densenet121/conv3_block8_0_bn/FusedBatchNormV3/Scaled", "op": "Const", "attr": {"dtype": {"type": "DT_FLOAT"}, "value": {"tensor": {"dtype": "DT_FLOAT", "tensorShape": {"dim": [{"size": "352"}]}}}}}, {"name": "StatefulPartitionedCall/sequential_3/densenet121/conv3_block4_1_conv/Conv2D_bn_offset", "op": "Const", "attr": {"dtype": {"type": "DT_FLOAT"}, "value": {"tensor": {"dtype": "DT_FLOAT", "tensorShape": {"dim": [{"size": "128"}]}}}}}, {"name": "StatefulPartitionedCall/sequential_3/densenet121/conv3_block5_1_conv/Conv2D_weights", "op": "Const", "attr": {"dtype": {"type": "DT_FLOAT"}, "value": {"tensor": {"dtype": "DT_FLOAT", "tensorShape": {"dim": [{"size": "1"}, {"size": "1"}, {"size": "256"}, {"size": "128"}]}}}}}, {"name": "StatefulPartitionedCall/sequential_3/densenet121/conv3_block5_1_conv/Conv2D_bn_offset", "op": "Const", "attr": {"dtype": {"type": "DT_FLOAT"}, "value": {"tensor": {"dtype": "DT_FLOAT", "tensorShape": {"dim": [{"size": "128"}]}}}}}, {"name": "StatefulPartitionedCall/sequential_3/densenet121/conv3_block8_0_bn/FusedBatchNormV3/Offset", "op": "Const", "attr": {"value": {"tensor": {"dtype": "DT_FLOAT", "tensorShape": {"dim": [{"size": "352"}]}}}, "dtype": {"type": "DT_FLOAT"}}}, {"name": "StatefulPartitionedCall/sequential_3/densenet121/conv3_block6_1_conv/Conv2D_weights", "op": "Const", "attr": {"dtype": {"type": "DT_FLOAT"}, "value": {"tensor": {"dtype": "DT_FLOAT", "tensorShape": {"dim": [{"size": "1"}, {"size": "1"}, {"size": "288"}, {"size": "128"}]}}}}}, {"name": "StatefulPartitionedCall/sequential_3/densenet121/conv3_block6_1_conv/Conv2D_bn_offset", "op": "Const", "attr": {"dtype": {"type": "DT_FLOAT"}, "value": {"tensor": {"dtype": "DT_FLOAT", "tensorShape": {"dim": [{"size": "128"}]}}}}}, {"name": "StatefulPartitionedCall/sequential_3/densenet121/conv3_block7_1_conv/Conv2D_weights", "op": "Const", "attr": {"dtype": {"type": "DT_FLOAT"}, "value": {"tensor": {"dtype": "DT_FLOAT", "tensorShape": {"dim": [{"size": "1"}, {"size": "1"}, {"size": "320"}, {"size": "128"}]}}}}}, {"name": "StatefulPartitionedCall/sequential_3/densenet121/conv3_block7_1_conv/Conv2D_bn_offset", "op": "Const", "attr": {"value": {"tensor": {"dtype": "DT_FLOAT", "tensorShape": {"dim": [{"size": "128"}]}}}, "dtype": {"type": "DT_FLOAT"}}}, {"name": "StatefulPartitionedCall/sequential_3/densenet121/conv3_block7_0_bn/FusedBatchNormV3/Scaled", "op": "Const", "attr": {"dtype": {"type": "DT_FLOAT"}, "value": {"tensor": {"dtype": "DT_FLOAT", "tensorShape": {"dim": [{"size": "320"}]}}}}}, {"name": "StatefulPartitionedCall/sequential_3/densenet121/conv3_block8_1_conv/Conv2D_weights", "op": "Const", "attr": {"value": {"tensor": {"dtype": "DT_FLOAT", "tensorShape": {"dim": [{"size": "1"}, {"size": "1"}, {"size": "352"}, {"size": "128"}]}}}, "dtype": {"type": "DT_FLOAT"}}}, {"name": "StatefulPartitionedCall/sequential_3/densenet121/conv3_block8_1_conv/Conv2D_bn_offset", "op": "Const", "attr": {"value": {"tensor": {"dtype": "DT_FLOAT", "tensorShape": {"dim": [{"size": "128"}]}}}, "dtype": {"type": "DT_FLOAT"}}}, {"name": "StatefulPartitionedCall/sequential_3/densenet121/conv3_block9_1_conv/Conv2D_weights", "op": "Const", "attr": {"value": {"tensor": {"dtype": "DT_FLOAT", "tensorShape": {"dim": [{"size": "1"}, {"size": "1"}, {"size": "384"}, {"size": "128"}]}}}, "dtype": {"type": "DT_FLOAT"}}}, {"name": "StatefulPartitionedCall/sequential_3/densenet121/conv3_block7_0_bn/FusedBatchNormV3/Offset", "op": "Const", "attr": {"dtype": {"type": "DT_FLOAT"}, "value": {"tensor": {"dtype": "DT_FLOAT", "tensorShape": {"dim": [{"size": "320"}]}}}}}, {"name": "StatefulPartitionedCall/sequential_3/densenet121/conv3_block9_1_conv/Conv2D_bn_offset", "op": "Const", "attr": {"value": {"tensor": {"dtype": "DT_FLOAT", "tensorShape": {"dim": [{"size": "128"}]}}}, "dtype": {"type": "DT_FLOAT"}}}, {"name": "StatefulPartitionedCall/sequential_3/densenet121/conv3_block10_1_conv/Conv2D_weights", "op": "Const", "attr": {"value": {"tensor": {"dtype": "DT_FLOAT", "tensorShape": {"dim": [{"size": "1"}, {"size": "1"}, {"size": "416"}, {"size": "128"}]}}}, "dtype": {"type": "DT_FLOAT"}}}, {"name": "StatefulPartitionedCall/sequential_3/densenet121/conv3_block10_1_conv/Conv2D_bn_offset", "op": "Const", "attr": {"dtype": {"type": "DT_FLOAT"}, "value": {"tensor": {"dtype": "DT_FLOAT", "tensorShape": {"dim": [{"size": "128"}]}}}}}, {"name": "StatefulPartitionedCall/sequential_3/densenet121/conv3_block11_1_conv/Conv2D_weights", "op": "Const", "attr": {"dtype": {"type": "DT_FLOAT"}, "value": {"tensor": {"dtype": "DT_FLOAT", "tensorShape": {"dim": [{"size": "1"}, {"size": "1"}, {"size": "448"}, {"size": "128"}]}}}}}, {"name": "StatefulPartitionedCall/sequential_3/densenet121/conv3_block6_0_bn/FusedBatchNormV3/Scaled", "op": "Const", "attr": {"dtype": {"type": "DT_FLOAT"}, "value": {"tensor": {"dtype": "DT_FLOAT", "tensorShape": {"dim": [{"size": "288"}]}}}}}, {"name": "StatefulPartitionedCall/sequential_3/densenet121/conv3_block11_1_conv/Conv2D_bn_offset", "op": "Const", "attr": {"dtype": {"type": "DT_FLOAT"}, "value": {"tensor": {"dtype": "DT_FLOAT", "tensorShape": {"dim": [{"size": "128"}]}}}}}, {"name": "StatefulPartitionedCall/sequential_3/densenet121/conv3_block12_1_conv/Conv2D_weights", "op": "Const", "attr": {"value": {"tensor": {"dtype": "DT_FLOAT", "tensorShape": {"dim": [{"size": "1"}, {"size": "1"}, {"size": "480"}, {"size": "128"}]}}}, "dtype": {"type": "DT_FLOAT"}}}, {"name": "StatefulPartitionedCall/sequential_3/densenet121/conv3_block12_1_conv/Conv2D_bn_offset", "op": "Const", "attr": {"dtype": {"type": "DT_FLOAT"}, "value": {"tensor": {"dtype": "DT_FLOAT", "tensorShape": {"dim": [{"size": "128"}]}}}}}, {"name": "StatefulPartitionedCall/sequential_3/densenet121/conv3_block6_0_bn/FusedBatchNormV3/Offset", "op": "Const", "attr": {"value": {"tensor": {"dtype": "DT_FLOAT", "tensorShape": {"dim": [{"size": "288"}]}}}, "dtype": {"type": "DT_FLOAT"}}}, {"name": "StatefulPartitionedCall/sequential_3/densenet121/conv4_block1_1_conv/Conv2D_weights", "op": "Const", "attr": {"value": {"tensor": {"dtype": "DT_FLOAT", "tensorShape": {"dim": [{"size": "1"}, {"size": "1"}, {"size": "256"}, {"size": "128"}]}}}, "dtype": {"type": "DT_FLOAT"}}}, {"name": "StatefulPartitionedCall/sequential_3/densenet121/conv4_block1_1_conv/Conv2D_bn_offset", "op": "Const", "attr": {"dtype": {"type": "DT_FLOAT"}, "value": {"tensor": {"dtype": "DT_FLOAT", "tensorShape": {"dim": [{"size": "128"}]}}}}}, {"name": "StatefulPartitionedCall/sequential_3/densenet121/conv4_block2_1_conv/Conv2D_weights", "op": "Const", "attr": {"dtype": {"type": "DT_FLOAT"}, "value": {"tensor": {"dtype": "DT_FLOAT", "tensorShape": {"dim": [{"size": "1"}, {"size": "1"}, {"size": "288"}, {"size": "128"}]}}}}}, {"name": "StatefulPartitionedCall/sequential_3/densenet121/conv4_block2_1_conv/Conv2D_bn_offset", "op": "Const", "attr": {"value": {"tensor": {"dtype": "DT_FLOAT", "tensorShape": {"dim": [{"size": "128"}]}}}, "dtype": {"type": "DT_FLOAT"}}}, {"name": "StatefulPartitionedCall/sequential_3/densenet121/conv3_block5_0_bn/FusedBatchNormV3/Scaled", "op": "Const", "attr": {"dtype": {"type": "DT_FLOAT"}, "value": {"tensor": {"dtype": "DT_FLOAT", "tensorShape": {"dim": [{"size": "256"}]}}}}}, {"name": "StatefulPartitionedCall/sequential_3/densenet121/conv4_block3_1_conv/Conv2D_weights", "op": "Const", "attr": {"dtype": {"type": "DT_FLOAT"}, "value": {"tensor": {"dtype": "DT_FLOAT", "tensorShape": {"dim": [{"size": "1"}, {"size": "1"}, {"size": "320"}, {"size": "128"}]}}}}}, {"name": "StatefulPartitionedCall/sequential_3/densenet121/conv4_block3_1_conv/Conv2D_bn_offset", "op": "Const", "attr": {"value": {"tensor": {"dtype": "DT_FLOAT", "tensorShape": {"dim": [{"size": "128"}]}}}, "dtype": {"type": "DT_FLOAT"}}}, {"name": "StatefulPartitionedCall/sequential_3/densenet121/conv4_block4_1_conv/Conv2D_weights", "op": "Const", "attr": {"value": {"tensor": {"dtype": "DT_FLOAT", "tensorShape": {"dim": [{"size": "1"}, {"size": "1"}, {"size": "352"}, {"size": "128"}]}}}, "dtype": {"type": "DT_FLOAT"}}}, {"name": "StatefulPartitionedCall/sequential_3/densenet121/conv3_block5_0_bn/FusedBatchNormV3/Offset", "op": "Const", "attr": {"dtype": {"type": "DT_FLOAT"}, "value": {"tensor": {"dtype": "DT_FLOAT", "tensorShape": {"dim": [{"size": "256"}]}}}}}, {"name": "StatefulPartitionedCall/sequential_3/densenet121/conv4_block4_1_conv/Conv2D_bn_offset", "op": "Const", "attr": {"dtype": {"type": "DT_FLOAT"}, "value": {"tensor": {"dtype": "DT_FLOAT", "tensorShape": {"dim": [{"size": "128"}]}}}}}, {"name": "StatefulPartitionedCall/sequential_3/densenet121/conv4_block5_1_conv/Conv2D_weights", "op": "Const", "attr": {"value": {"tensor": {"dtype": "DT_FLOAT", "tensorShape": {"dim": [{"size": "1"}, {"size": "1"}, {"size": "384"}, {"size": "128"}]}}}, "dtype": {"type": "DT_FLOAT"}}}, {"name": "StatefulPartitionedCall/sequential_3/densenet121/conv4_block5_1_conv/Conv2D_bn_offset", "op": "Const", "attr": {"value": {"tensor": {"dtype": "DT_FLOAT", "tensorShape": {"dim": [{"size": "128"}]}}}, "dtype": {"type": "DT_FLOAT"}}}, {"name": "StatefulPartitionedCall/sequential_3/densenet121/conv4_block6_1_conv/Conv2D_weights", "op": "Const", "attr": {"value": {"tensor": {"dtype": "DT_FLOAT", "tensorShape": {"dim": [{"size": "1"}, {"size": "1"}, {"size": "416"}, {"size": "128"}]}}}, "dtype": {"type": "DT_FLOAT"}}}, {"name": "StatefulPartitionedCall/sequential_3/densenet121/conv3_block4_0_bn/FusedBatchNormV3/Scaled", "op": "Const", "attr": {"value": {"tensor": {"dtype": "DT_FLOAT", "tensorShape": {"dim": [{"size": "224"}]}}}, "dtype": {"type": "DT_FLOAT"}}}, {"name": "StatefulPartitionedCall/sequential_3/densenet121/conv4_block6_1_conv/Conv2D_bn_offset", "op": "Const", "attr": {"value": {"tensor": {"dtype": "DT_FLOAT", "tensorShape": {"dim": [{"size": "128"}]}}}, "dtype": {"type": "DT_FLOAT"}}}, {"name": "StatefulPartitionedCall/sequential_3/densenet121/conv4_block7_1_conv/Conv2D_weights", "op": "Const", "attr": {"dtype": {"type": "DT_FLOAT"}, "value": {"tensor": {"dtype": "DT_FLOAT", "tensorShape": {"dim": [{"size": "1"}, {"size": "1"}, {"size": "448"}, {"size": "128"}]}}}}}, {"name": "StatefulPartitionedCall/sequential_3/densenet121/conv4_block7_1_conv/Conv2D_bn_offset", "op": "Const", "attr": {"dtype": {"type": "DT_FLOAT"}, "value": {"tensor": {"dtype": "DT_FLOAT", "tensorShape": {"dim": [{"size": "128"}]}}}}}, {"name": "StatefulPartitionedCall/sequential_3/densenet121/conv3_block4_0_bn/FusedBatchNormV3/Offset", "op": "Const", "attr": {"value": {"tensor": {"dtype": "DT_FLOAT", "tensorShape": {"dim": [{"size": "224"}]}}}, "dtype": {"type": "DT_FLOAT"}}}, {"name": "StatefulPartitionedCall/sequential_3/densenet121/conv4_block8_1_conv/Conv2D_weights", "op": "Const", "attr": {"value": {"tensor": {"dtype": "DT_FLOAT", "tensorShape": {"dim": [{"size": "1"}, {"size": "1"}, {"size": "480"}, {"size": "128"}]}}}, "dtype": {"type": "DT_FLOAT"}}}, {"name": "StatefulPartitionedCall/sequential_3/densenet121/conv4_block8_1_conv/Conv2D_bn_offset", "op": "Const", "attr": {"dtype": {"type": "DT_FLOAT"}, "value": {"tensor": {"dtype": "DT_FLOAT", "tensorShape": {"dim": [{"size": "128"}]}}}}}, {"name": "StatefulPartitionedCall/sequential_3/densenet121/conv4_block9_1_conv/Conv2D_weights", "op": "Const", "attr": {"value": {"tensor": {"dtype": "DT_FLOAT", "tensorShape": {"dim": [{"size": "1"}, {"size": "1"}, {"size": "512"}, {"size": "128"}]}}}, "dtype": {"type": "DT_FLOAT"}}}, {"name": "StatefulPartitionedCall/sequential_3/densenet121/conv4_block9_1_conv/Conv2D_bn_offset", "op": "Const", "attr": {"dtype": {"type": "DT_FLOAT"}, "value": {"tensor": {"dtype": "DT_FLOAT", "tensorShape": {"dim": [{"size": "128"}]}}}}}, {"name": "StatefulPartitionedCall/sequential_3/densenet121/conv3_block3_0_bn/FusedBatchNormV3/Scaled", "op": "Const", "attr": {"value": {"tensor": {"dtype": "DT_FLOAT", "tensorShape": {"dim": [{"size": "192"}]}}}, "dtype": {"type": "DT_FLOAT"}}}, {"name": "StatefulPartitionedCall/sequential_3/densenet121/conv4_block10_1_conv/Conv2D_weights", "op": "Const", "attr": {"value": {"tensor": {"dtype": "DT_FLOAT", "tensorShape": {"dim": [{"size": "1"}, {"size": "1"}, {"size": "544"}, {"size": "128"}]}}}, "dtype": {"type": "DT_FLOAT"}}}, {"name": "StatefulPartitionedCall/sequential_3/densenet121/conv4_block10_1_conv/Conv2D_bn_offset", "op": "Const", "attr": {"dtype": {"type": "DT_FLOAT"}, "value": {"tensor": {"dtype": "DT_FLOAT", "tensorShape": {"dim": [{"size": "128"}]}}}}}, {"name": "StatefulPartitionedCall/sequential_3/densenet121/conv4_block11_1_conv/Conv2D_weights", "op": "Const", "attr": {"value": {"tensor": {"dtype": "DT_FLOAT", "tensorShape": {"dim": [{"size": "1"}, {"size": "1"}, {"size": "576"}, {"size": "128"}]}}}, "dtype": {"type": "DT_FLOAT"}}}, {"name": "StatefulPartitionedCall/sequential_3/densenet121/conv3_block3_0_bn/FusedBatchNormV3/Offset", "op": "Const", "attr": {"dtype": {"type": "DT_FLOAT"}, "value": {"tensor": {"dtype": "DT_FLOAT", "tensorShape": {"dim": [{"size": "192"}]}}}}}, {"name": "StatefulPartitionedCall/sequential_3/densenet121/conv4_block11_1_conv/Conv2D_bn_offset", "op": "Const", "attr": {"value": {"tensor": {"dtype": "DT_FLOAT", "tensorShape": {"dim": [{"size": "128"}]}}}, "dtype": {"type": "DT_FLOAT"}}}, {"name": "StatefulPartitionedCall/sequential_3/densenet121/conv4_block12_1_conv/Conv2D_weights", "op": "Const", "attr": {"dtype": {"type": "DT_FLOAT"}, "value": {"tensor": {"dtype": "DT_FLOAT", "tensorShape": {"dim": [{"size": "1"}, {"size": "1"}, {"size": "608"}, {"size": "128"}]}}}}}, {"name": "StatefulPartitionedCall/sequential_3/densenet121/conv4_block12_1_conv/Conv2D_bn_offset", "op": "Const", "attr": {"dtype": {"type": "DT_FLOAT"}, "value": {"tensor": {"dtype": "DT_FLOAT", "tensorShape": {"dim": [{"size": "128"}]}}}}}, {"name": "StatefulPartitionedCall/sequential_3/densenet121/conv4_block13_1_conv/Conv2D_weights", "op": "Const", "attr": {"value": {"tensor": {"dtype": "DT_FLOAT", "tensorShape": {"dim": [{"size": "1"}, {"size": "1"}, {"size": "640"}, {"size": "128"}]}}}, "dtype": {"type": "DT_FLOAT"}}}, {"name": "StatefulPartitionedCall/sequential_3/densenet121/conv3_block2_0_bn/FusedBatchNormV3/Scaled", "op": "Const", "attr": {"dtype": {"type": "DT_FLOAT"}, "value": {"tensor": {"dtype": "DT_FLOAT", "tensorShape": {"dim": [{"size": "160"}]}}}}}, {"name": "StatefulPartitionedCall/sequential_3/densenet121/conv4_block13_1_conv/Conv2D_bn_offset", "op": "Const", "attr": {"value": {"tensor": {"dtype": "DT_FLOAT", "tensorShape": {"dim": [{"size": "128"}]}}}, "dtype": {"type": "DT_FLOAT"}}}, {"name": "StatefulPartitionedCall/sequential_3/densenet121/conv4_block14_1_conv/Conv2D_weights", "op": "Const", "attr": {"dtype": {"type": "DT_FLOAT"}, "value": {"tensor": {"dtype": "DT_FLOAT", "tensorShape": {"dim": [{"size": "1"}, {"size": "1"}, {"size": "672"}, {"size": "128"}]}}}}}, {"name": "StatefulPartitionedCall/sequential_3/densenet121/conv4_block14_1_conv/Conv2D_bn_offset", "op": "Const", "attr": {"value": {"tensor": {"dtype": "DT_FLOAT", "tensorShape": {"dim": [{"size": "128"}]}}}, "dtype": {"type": "DT_FLOAT"}}}, {"name": "StatefulPartitionedCall/sequential_3/densenet121/conv3_block2_0_bn/FusedBatchNormV3/Offset", "op": "Const", "attr": {"value": {"tensor": {"dtype": "DT_FLOAT", "tensorShape": {"dim": [{"size": "160"}]}}}, "dtype": {"type": "DT_FLOAT"}}}, {"name": "StatefulPartitionedCall/sequential_3/densenet121/conv4_block15_1_conv/Conv2D_weights", "op": "Const", "attr": {"dtype": {"type": "DT_FLOAT"}, "value": {"tensor": {"dtype": "DT_FLOAT", "tensorShape": {"dim": [{"size": "1"}, {"size": "1"}, {"size": "704"}, {"size": "128"}]}}}}}, {"name": "StatefulPartitionedCall/sequential_3/densenet121/conv4_block15_1_conv/Conv2D_bn_offset", "op": "Const", "attr": {"value": {"tensor": {"dtype": "DT_FLOAT", "tensorShape": {"dim": [{"size": "128"}]}}}, "dtype": {"type": "DT_FLOAT"}}}, {"name": "StatefulPartitionedCall/sequential_3/densenet121/conv4_block16_1_conv/Conv2D_weights", "op": "Const", "attr": {"dtype": {"type": "DT_FLOAT"}, "value": {"tensor": {"dtype": "DT_FLOAT", "tensorShape": {"dim": [{"size": "1"}, {"size": "1"}, {"size": "736"}, {"size": "128"}]}}}}}, {"name": "StatefulPartitionedCall/sequential_3/densenet121/conv4_block16_1_conv/Conv2D_bn_offset", "op": "Const", "attr": {"value": {"tensor": {"dtype": "DT_FLOAT", "tensorShape": {"dim": [{"size": "128"}]}}}, "dtype": {"type": "DT_FLOAT"}}}, {"name": "StatefulPartitionedCall/sequential_3/densenet121/conv3_block1_0_bn/FusedBatchNormV3/Scaled", "op": "Const", "attr": {"dtype": {"type": "DT_FLOAT"}, "value": {"tensor": {"dtype": "DT_FLOAT", "tensorShape": {"dim": [{"size": "128"}]}}}}}, {"name": "StatefulPartitionedCall/sequential_3/densenet121/conv4_block17_1_conv/Conv2D_weights", "op": "Const", "attr": {"value": {"tensor": {"dtype": "DT_FLOAT", "tensorShape": {"dim": [{"size": "1"}, {"size": "1"}, {"size": "768"}, {"size": "128"}]}}}, "dtype": {"type": "DT_FLOAT"}}}, {"name": "StatefulPartitionedCall/sequential_3/densenet121/conv4_block17_1_conv/Conv2D_bn_offset", "op": "Const", "attr": {"dtype": {"type": "DT_FLOAT"}, "value": {"tensor": {"dtype": "DT_FLOAT", "tensorShape": {"dim": [{"size": "128"}]}}}}}, {"name": "StatefulPartitionedCall/sequential_3/densenet121/conv4_block18_1_conv/Conv2D_weights", "op": "Const", "attr": {"value": {"tensor": {"dtype": "DT_FLOAT", "tensorShape": {"dim": [{"size": "1"}, {"size": "1"}, {"size": "800"}, {"size": "128"}]}}}, "dtype": {"type": "DT_FLOAT"}}}, {"name": "StatefulPartitionedCall/sequential_3/densenet121/conv3_block1_0_bn/FusedBatchNormV3/Offset", "op": "Const", "attr": {"value": {"tensor": {"dtype": "DT_FLOAT", "tensorShape": {"dim": [{"size": "128"}]}}}, "dtype": {"type": "DT_FLOAT"}}}, {"name": "StatefulPartitionedCall/sequential_3/densenet121/conv4_block18_1_conv/Conv2D_bn_offset", "op": "Const", "attr": {"value": {"tensor": {"dtype": "DT_FLOAT", "tensorShape": {"dim": [{"size": "128"}]}}}, "dtype": {"type": "DT_FLOAT"}}}, {"name": "StatefulPartitionedCall/sequential_3/densenet121/conv4_block19_1_conv/Conv2D_weights", "op": "Const", "attr": {"dtype": {"type": "DT_FLOAT"}, "value": {"tensor": {"dtype": "DT_FLOAT", "tensorShape": {"dim": [{"size": "1"}, {"size": "1"}, {"size": "832"}, {"size": "128"}]}}}}}, {"name": "StatefulPartitionedCall/sequential_3/densenet121/conv4_block19_1_conv/Conv2D_bn_offset", "op": "Const", "attr": {"value": {"tensor": {"dtype": "DT_FLOAT", "tensorShape": {"dim": [{"size": "128"}]}}}, "dtype": {"type": "DT_FLOAT"}}}, {"name": "StatefulPartitionedCall/sequential_3/densenet121/conv4_block20_1_conv/Conv2D_weights", "op": "Const", "attr": {"value": {"tensor": {"dtype": "DT_FLOAT", "tensorShape": {"dim": [{"size": "1"}, {"size": "1"}, {"size": "864"}, {"size": "128"}]}}}, "dtype": {"type": "DT_FLOAT"}}}, {"name": "StatefulPartitionedCall/sequential_3/densenet121/pool2_bn/FusedBatchNormV3/Scaled", "op": "Const", "attr": {"dtype": {"type": "DT_FLOAT"}, "value": {"tensor": {"dtype": "DT_FLOAT", "tensorShape": {"dim": [{"size": "256"}]}}}}}, {"name": "StatefulPartitionedCall/sequential_3/densenet121/conv4_block20_1_conv/Conv2D_bn_offset", "op": "Const", "attr": {"value": {"tensor": {"dtype": "DT_FLOAT", "tensorShape": {"dim": [{"size": "128"}]}}}, "dtype": {"type": "DT_FLOAT"}}}, {"name": "StatefulPartitionedCall/sequential_3/densenet121/conv4_block21_1_conv/Conv2D_weights", "op": "Const", "attr": {"dtype": {"type": "DT_FLOAT"}, "value": {"tensor": {"dtype": "DT_FLOAT", "tensorShape": {"dim": [{"size": "1"}, {"size": "1"}, {"size": "896"}, {"size": "128"}]}}}}}, {"name": "StatefulPartitionedCall/sequential_3/densenet121/conv4_block21_1_conv/Conv2D_bn_offset", "op": "Const", "attr": {"dtype": {"type": "DT_FLOAT"}, "value": {"tensor": {"dtype": "DT_FLOAT", "tensorShape": {"dim": [{"size": "128"}]}}}}}, {"name": "StatefulPartitionedCall/sequential_3/densenet121/pool2_bn/FusedBatchNormV3/Offset", "op": "Const", "attr": {"dtype": {"type": "DT_FLOAT"}, "value": {"tensor": {"dtype": "DT_FLOAT", "tensorShape": {"dim": [{"size": "256"}]}}}}}, {"name": "StatefulPartitionedCall/sequential_3/densenet121/conv4_block22_1_conv/Conv2D_weights", "op": "Const", "attr": {"value": {"tensor": {"dtype": "DT_FLOAT", "tensorShape": {"dim": [{"size": "1"}, {"size": "1"}, {"size": "928"}, {"size": "128"}]}}}, "dtype": {"type": "DT_FLOAT"}}}, {"name": "StatefulPartitionedCall/sequential_3/densenet121/conv4_block22_1_conv/Conv2D_bn_offset", "op": "Const", "attr": {"dtype": {"type": "DT_FLOAT"}, "value": {"tensor": {"dtype": "DT_FLOAT", "tensorShape": {"dim": [{"size": "128"}]}}}}}, {"name": "StatefulPartitionedCall/sequential_3/densenet121/conv4_block23_1_conv/Conv2D_weights", "op": "Const", "attr": {"value": {"tensor": {"dtype": "DT_FLOAT", "tensorShape": {"dim": [{"size": "1"}, {"size": "1"}, {"size": "960"}, {"size": "128"}]}}}, "dtype": {"type": "DT_FLOAT"}}}, {"name": "StatefulPartitionedCall/sequential_3/densenet121/conv4_block23_1_conv/Conv2D_bn_offset", "op": "Const", "attr": {"dtype": {"type": "DT_FLOAT"}, "value": {"tensor": {"dtype": "DT_FLOAT", "tensorShape": {"dim": [{"size": "128"}]}}}}}, {"name": "StatefulPartitionedCall/sequential_3/densenet121/conv2_block6_0_bn/FusedBatchNormV3/Scaled", "op": "Const", "attr": {"dtype": {"type": "DT_FLOAT"}, "value": {"tensor": {"dtype": "DT_FLOAT", "tensorShape": {"dim": [{"size": "224"}]}}}}}, {"name": "StatefulPartitionedCall/sequential_3/densenet121/conv4_block24_1_conv/Conv2D_weights", "op": "Const", "attr": {"dtype": {"type": "DT_FLOAT"}, "value": {"tensor": {"dtype": "DT_FLOAT", "tensorShape": {"dim": [{"size": "1"}, {"size": "1"}, {"size": "992"}, {"size": "128"}]}}}}}, {"name": "StatefulPartitionedCall/sequential_3/densenet121/conv4_block24_1_conv/Conv2D_bn_offset", "op": "Const", "attr": {"dtype": {"type": "DT_FLOAT"}, "value": {"tensor": {"dtype": "DT_FLOAT", "tensorShape": {"dim": [{"size": "128"}]}}}}}, {"name": "StatefulPartitionedCall/sequential_3/densenet121/conv5_block1_1_conv/Conv2D_weights", "op": "Const", "attr": {"dtype": {"type": "DT_FLOAT"}, "value": {"tensor": {"dtype": "DT_FLOAT", "tensorShape": {"dim": [{"size": "1"}, {"size": "1"}, {"size": "512"}, {"size": "128"}]}}}}}, {"name": "StatefulPartitionedCall/sequential_3/densenet121/conv2_block6_0_bn/FusedBatchNormV3/Offset", "op": "Const", "attr": {"dtype": {"type": "DT_FLOAT"}, "value": {"tensor": {"dtype": "DT_FLOAT", "tensorShape": {"dim": [{"size": "224"}]}}}}}, {"name": "StatefulPartitionedCall/sequential_3/densenet121/conv5_block1_1_conv/Conv2D_bn_offset", "op": "Const", "attr": {"dtype": {"type": "DT_FLOAT"}, "value": {"tensor": {"dtype": "DT_FLOAT", "tensorShape": {"dim": [{"size": "128"}]}}}}}, {"name": "StatefulPartitionedCall/sequential_3/densenet121/conv5_block2_1_conv/Conv2D_weights", "op": "Const", "attr": {"value": {"tensor": {"dtype": "DT_FLOAT", "tensorShape": {"dim": [{"size": "1"}, {"size": "1"}, {"size": "544"}, {"size": "128"}]}}}, "dtype": {"type": "DT_FLOAT"}}}, {"name": "StatefulPartitionedCall/sequential_3/densenet121/conv5_block2_1_conv/Conv2D_bn_offset", "op": "Const", "attr": {"value": {"tensor": {"dtype": "DT_FLOAT", "tensorShape": {"dim": [{"size": "128"}]}}}, "dtype": {"type": "DT_FLOAT"}}}, {"name": "StatefulPartitionedCall/sequential_3/densenet121/conv5_block3_1_conv/Conv2D_weights", "op": "Const", "attr": {"dtype": {"type": "DT_FLOAT"}, "value": {"tensor": {"dtype": "DT_FLOAT", "tensorShape": {"dim": [{"size": "1"}, {"size": "1"}, {"size": "576"}, {"size": "128"}]}}}}}, {"name": "StatefulPartitionedCall/sequential_3/densenet121/conv2_block5_0_bn/FusedBatchNormV3/Scaled", "op": "Const", "attr": {"value": {"tensor": {"dtype": "DT_FLOAT", "tensorShape": {"dim": [{"size": "192"}]}}}, "dtype": {"type": "DT_FLOAT"}}}, {"name": "StatefulPartitionedCall/sequential_3/densenet121/conv5_block3_1_conv/Conv2D_bn_offset", "op": "Const", "attr": {"value": {"tensor": {"dtype": "DT_FLOAT", "tensorShape": {"dim": [{"size": "128"}]}}}, "dtype": {"type": "DT_FLOAT"}}}, {"name": "StatefulPartitionedCall/sequential_3/densenet121/conv5_block4_1_conv/Conv2D_weights", "op": "Const", "attr": {"value": {"tensor": {"dtype": "DT_FLOAT", "tensorShape": {"dim": [{"size": "1"}, {"size": "1"}, {"size": "608"}, {"size": "128"}]}}}, "dtype": {"type": "DT_FLOAT"}}}, {"name": "StatefulPartitionedCall/sequential_3/densenet121/conv5_block4_1_conv/Conv2D_bn_offset", "op": "Const", "attr": {"value": {"tensor": {"dtype": "DT_FLOAT", "tensorShape": {"dim": [{"size": "128"}]}}}, "dtype": {"type": "DT_FLOAT"}}}, {"name": "StatefulPartitionedCall/sequential_3/densenet121/conv2_block5_0_bn/FusedBatchNormV3/Offset", "op": "Const", "attr": {"value": {"tensor": {"dtype": "DT_FLOAT", "tensorShape": {"dim": [{"size": "192"}]}}}, "dtype": {"type": "DT_FLOAT"}}}, {"name": "StatefulPartitionedCall/sequential_3/densenet121/conv5_block5_1_conv/Conv2D_weights", "op": "Const", "attr": {"dtype": {"type": "DT_FLOAT"}, "value": {"tensor": {"dtype": "DT_FLOAT", "tensorShape": {"dim": [{"size": "1"}, {"size": "1"}, {"size": "640"}, {"size": "128"}]}}}}}, {"name": "StatefulPartitionedCall/sequential_3/densenet121/conv5_block5_1_conv/Conv2D_bn_offset", "op": "Const", "attr": {"value": {"tensor": {"dtype": "DT_FLOAT", "tensorShape": {"dim": [{"size": "128"}]}}}, "dtype": {"type": "DT_FLOAT"}}}, {"name": "StatefulPartitionedCall/sequential_3/densenet121/conv5_block6_1_conv/Conv2D_weights", "op": "Const", "attr": {"dtype": {"type": "DT_FLOAT"}, "value": {"tensor": {"dtype": "DT_FLOAT", "tensorShape": {"dim": [{"size": "1"}, {"size": "1"}, {"size": "672"}, {"size": "128"}]}}}}}, {"name": "StatefulPartitionedCall/sequential_3/densenet121/conv5_block6_1_conv/Conv2D_bn_offset", "op": "Const", "attr": {"value": {"tensor": {"dtype": "DT_FLOAT", "tensorShape": {"dim": [{"size": "128"}]}}}, "dtype": {"type": "DT_FLOAT"}}}, {"name": "StatefulPartitionedCall/sequential_3/densenet121/conv2_block4_0_bn/FusedBatchNormV3/Scaled", "op": "Const", "attr": {"value": {"tensor": {"dtype": "DT_FLOAT", "tensorShape": {"dim": [{"size": "160"}]}}}, "dtype": {"type": "DT_FLOAT"}}}, {"name": "StatefulPartitionedCall/sequential_3/densenet121/conv5_block7_1_conv/Conv2D_weights", "op": "Const", "attr": {"value": {"tensor": {"dtype": "DT_FLOAT", "tensorShape": {"dim": [{"size": "1"}, {"size": "1"}, {"size": "704"}, {"size": "128"}]}}}, "dtype": {"type": "DT_FLOAT"}}}, {"name": "StatefulPartitionedCall/sequential_3/densenet121/conv5_block7_1_conv/Conv2D_bn_offset", "op": "Const", "attr": {"value": {"tensor": {"dtype": "DT_FLOAT", "tensorShape": {"dim": [{"size": "128"}]}}}, "dtype": {"type": "DT_FLOAT"}}}, {"name": "StatefulPartitionedCall/sequential_3/densenet121/conv5_block8_1_conv/Conv2D_weights", "op": "Const", "attr": {"dtype": {"type": "DT_FLOAT"}, "value": {"tensor": {"dtype": "DT_FLOAT", "tensorShape": {"dim": [{"size": "1"}, {"size": "1"}, {"size": "736"}, {"size": "128"}]}}}}}, {"name": "StatefulPartitionedCall/sequential_3/densenet121/conv2_block4_0_bn/FusedBatchNormV3/Offset", "op": "Const", "attr": {"dtype": {"type": "DT_FLOAT"}, "value": {"tensor": {"dtype": "DT_FLOAT", "tensorShape": {"dim": [{"size": "160"}]}}}}}, {"name": "StatefulPartitionedCall/sequential_3/densenet121/conv5_block8_1_conv/Conv2D_bn_offset", "op": "Const", "attr": {"value": {"tensor": {"dtype": "DT_FLOAT", "tensorShape": {"dim": [{"size": "128"}]}}}, "dtype": {"type": "DT_FLOAT"}}}, {"name": "StatefulPartitionedCall/sequential_3/densenet121/conv5_block9_1_conv/Conv2D_weights", "op": "Const", "attr": {"dtype": {"type": "DT_FLOAT"}, "value": {"tensor": {"dtype": "DT_FLOAT", "tensorShape": {"dim": [{"size": "1"}, {"size": "1"}, {"size": "768"}, {"size": "128"}]}}}}}, {"name": "StatefulPartitionedCall/sequential_3/densenet121/conv5_block9_1_conv/Conv2D_bn_offset", "op": "Const", "attr": {"value": {"tensor": {"dtype": "DT_FLOAT", "tensorShape": {"dim": [{"size": "128"}]}}}, "dtype": {"type": "DT_FLOAT"}}}, {"name": "StatefulPartitionedCall/sequential_3/densenet121/conv5_block10_1_conv/Conv2D_weights", "op": "Const", "attr": {"value": {"tensor": {"dtype": "DT_FLOAT", "tensorShape": {"dim": [{"size": "1"}, {"size": "1"}, {"size": "800"}, {"size": "128"}]}}}, "dtype": {"type": "DT_FLOAT"}}}, {"name": "StatefulPartitionedCall/sequential_3/densenet121/conv2_block3_0_bn/FusedBatchNormV3/Scaled", "op": "Const", "attr": {"value": {"tensor": {"dtype": "DT_FLOAT", "tensorShape": {"dim": [{"size": "128"}]}}}, "dtype": {"type": "DT_FLOAT"}}}, {"name": "StatefulPartitionedCall/sequential_3/densenet121/conv5_block10_1_conv/Conv2D_bn_offset", "op": "Const", "attr": {"value": {"tensor": {"dtype": "DT_FLOAT", "tensorShape": {"dim": [{"size": "128"}]}}}, "dtype": {"type": "DT_FLOAT"}}}, {"name": "StatefulPartitionedCall/sequential_3/densenet121/conv5_block11_1_conv/Conv2D_weights", "op": "Const", "attr": {"value": {"tensor": {"dtype": "DT_FLOAT", "tensorShape": {"dim": [{"size": "1"}, {"size": "1"}, {"size": "832"}, {"size": "128"}]}}}, "dtype": {"type": "DT_FLOAT"}}}, {"name": "StatefulPartitionedCall/sequential_3/densenet121/conv5_block11_1_conv/Conv2D_bn_offset", "op": "Const", "attr": {"dtype": {"type": "DT_FLOAT"}, "value": {"tensor": {"dtype": "DT_FLOAT", "tensorShape": {"dim": [{"size": "128"}]}}}}}, {"name": "StatefulPartitionedCall/sequential_3/densenet121/conv2_block3_0_bn/FusedBatchNormV3/Offset", "op": "Const", "attr": {"value": {"tensor": {"dtype": "DT_FLOAT", "tensorShape": {"dim": [{"size": "128"}]}}}, "dtype": {"type": "DT_FLOAT"}}}, {"name": "StatefulPartitionedCall/sequential_3/densenet121/conv5_block12_1_conv/Conv2D_weights", "op": "Const", "attr": {"value": {"tensor": {"dtype": "DT_FLOAT", "tensorShape": {"dim": [{"size": "1"}, {"size": "1"}, {"size": "864"}, {"size": "128"}]}}}, "dtype": {"type": "DT_FLOAT"}}}, {"name": "StatefulPartitionedCall/sequential_3/densenet121/conv5_block12_1_conv/Conv2D_bn_offset", "op": "Const", "attr": {"value": {"tensor": {"dtype": "DT_FLOAT", "tensorShape": {"dim": [{"size": "128"}]}}}, "dtype": {"type": "DT_FLOAT"}}}, {"name": "StatefulPartitionedCall/sequential_3/densenet121/conv5_block13_1_conv/Conv2D_weights", "op": "Const", "attr": {"dtype": {"type": "DT_FLOAT"}, "value": {"tensor": {"dtype": "DT_FLOAT", "tensorShape": {"dim": [{"size": "1"}, {"size": "1"}, {"size": "896"}, {"size": "128"}]}}}}}, {"name": "StatefulPartitionedCall/sequential_3/densenet121/conv5_block13_1_conv/Conv2D_bn_offset", "op": "Const", "attr": {"dtype": {"type": "DT_FLOAT"}, "value": {"tensor": {"dtype": "DT_FLOAT", "tensorShape": {"dim": [{"size": "128"}]}}}}}, {"name": "StatefulPartitionedCall/sequential_3/densenet121/conv2_block2_0_bn/FusedBatchNormV3/Scaled", "op": "Const", "attr": {"value": {"tensor": {"dtype": "DT_FLOAT", "tensorShape": {"dim": [{"size": "96"}]}}}, "dtype": {"type": "DT_FLOAT"}}}, {"name": "StatefulPartitionedCall/sequential_3/densenet121/conv5_block14_1_conv/Conv2D_weights", "op": "Const", "attr": {"value": {"tensor": {"dtype": "DT_FLOAT", "tensorShape": {"dim": [{"size": "1"}, {"size": "1"}, {"size": "928"}, {"size": "128"}]}}}, "dtype": {"type": "DT_FLOAT"}}}, {"name": "StatefulPartitionedCall/sequential_3/densenet121/conv5_block14_1_conv/Conv2D_bn_offset", "op": "Const", "attr": {"dtype": {"type": "DT_FLOAT"}, "value": {"tensor": {"dtype": "DT_FLOAT", "tensorShape": {"dim": [{"size": "128"}]}}}}}, {"name": "StatefulPartitionedCall/sequential_3/densenet121/conv5_block15_1_conv/Conv2D_weights", "op": "Const", "attr": {"dtype": {"type": "DT_FLOAT"}, "value": {"tensor": {"dtype": "DT_FLOAT", "tensorShape": {"dim": [{"size": "1"}, {"size": "1"}, {"size": "960"}, {"size": "128"}]}}}}}, {"name": "StatefulPartitionedCall/sequential_3/densenet121/conv2_block2_0_bn/FusedBatchNormV3/Offset", "op": "Const", "attr": {"value": {"tensor": {"dtype": "DT_FLOAT", "tensorShape": {"dim": [{"size": "96"}]}}}, "dtype": {"type": "DT_FLOAT"}}}, {"name": "StatefulPartitionedCall/sequential_3/densenet121/conv5_block15_1_conv/Conv2D_bn_offset", "op": "Const", "attr": {"dtype": {"type": "DT_FLOAT"}, "value": {"tensor": {"dtype": "DT_FLOAT", "tensorShape": {"dim": [{"size": "128"}]}}}}}, {"name": "StatefulPartitionedCall/sequential_3/densenet121/conv5_block16_1_conv/Conv2D_weights", "op": "Const", "attr": {"value": {"tensor": {"dtype": "DT_FLOAT", "tensorShape": {"dim": [{"size": "1"}, {"size": "1"}, {"size": "992"}, {"size": "128"}]}}}, "dtype": {"type": "DT_FLOAT"}}}, {"name": "StatefulPartitionedCall/sequential_3/densenet121/conv5_block16_1_conv/Conv2D_bn_offset", "op": "Const", "attr": {"dtype": {"type": "DT_FLOAT"}, "value": {"tensor": {"dtype": "DT_FLOAT", "tensorShape": {"dim": [{"size": "128"}]}}}}}, {"name": "StatefulPartitionedCall/sequential_3/densenet121/conv2_block1_0_bn/FusedBatchNormV3/Scaled", "op": "Const", "attr": {"dtype": {"type": "DT_FLOAT"}, "value": {"tensor": {"dtype": "DT_FLOAT", "tensorShape": {"dim": [{"size": "64"}]}}}}}, {"name": "StatefulPartitionedCall/sequential_3/densenet121/conv2_block1_0_bn/FusedBatchNormV3/Offset", "op": "Const", "attr": {"dtype": {"type": "DT_FLOAT"}, "value": {"tensor": {"dtype": "DT_FLOAT", "tensorShape": {"dim": [{"size": "64"}]}}}}}, {"name": "StatefulPartitionedCall/sequential_3/densenet121/bn/FusedBatchNormV3/Scaled", "op": "Const", "attr": {"value": {"tensor": {"dtype": "DT_FLOAT", "tensorShape": {"dim": [{"size": "1024"}]}}}, "dtype": {"type": "DT_FLOAT"}}}, {"name": "StatefulPartitionedCall/sequential_3/densenet121/bn/FusedBatchNormV3/Offset", "op": "Const", "attr": {"value": {"tensor": {"dtype": "DT_FLOAT", "tensorShape": {"dim": [{"size": "1024"}]}}}, "dtype": {"type": "DT_FLOAT"}}}, {"name": "StatefulPartitionedCall/sequential_3/densenet121/conv5_block16_0_bn/FusedBatchNormV3/Scaled", "op": "Const", "attr": {"dtype": {"type": "DT_FLOAT"}, "value": {"tensor": {"dtype": "DT_FLOAT", "tensorShape": {"dim": [{"size": "992"}]}}}}}, {"name": "StatefulPartitionedCall/sequential_3/densenet121/conv5_block16_0_bn/FusedBatchNormV3/Offset", "op": "Const", "attr": {"dtype": {"type": "DT_FLOAT"}, "value": {"tensor": {"dtype": "DT_FLOAT", "tensorShape": {"dim": [{"size": "992"}]}}}}}, {"name": "StatefulPartitionedCall/sequential_3/densenet121/conv5_block15_0_bn/FusedBatchNormV3/Scaled", "op": "Const", "attr": {"dtype": {"type": "DT_FLOAT"}, "value": {"tensor": {"dtype": "DT_FLOAT", "tensorShape": {"dim": [{"size": "960"}]}}}}}, {"name": "StatefulPartitionedCall/sequential_3/densenet121/conv5_block15_0_bn/FusedBatchNormV3/Offset", "op": "Const", "attr": {"dtype": {"type": "DT_FLOAT"}, "value": {"tensor": {"dtype": "DT_FLOAT", "tensorShape": {"dim": [{"size": "960"}]}}}}}, {"name": "StatefulPartitionedCall/sequential_3/densenet121/conv5_block14_0_bn/FusedBatchNormV3/Scaled", "op": "Const", "attr": {"value": {"tensor": {"dtype": "DT_FLOAT", "tensorShape": {"dim": [{"size": "928"}]}}}, "dtype": {"type": "DT_FLOAT"}}}, {"name": "StatefulPartitionedCall/sequential_3/densenet121/conv5_block14_0_bn/FusedBatchNormV3/Offset", "op": "Const", "attr": {"value": {"tensor": {"dtype": "DT_FLOAT", "tensorShape": {"dim": [{"size": "928"}]}}}, "dtype": {"type": "DT_FLOAT"}}}, {"name": "StatefulPartitionedCall/sequential_3/densenet121/conv5_block13_0_bn/FusedBatchNormV3/Scaled", "op": "Const", "attr": {"dtype": {"type": "DT_FLOAT"}, "value": {"tensor": {"dtype": "DT_FLOAT", "tensorShape": {"dim": [{"size": "896"}]}}}}}, {"name": "StatefulPartitionedCall/sequential_3/densenet121/conv5_block13_0_bn/FusedBatchNormV3/Offset", "op": "Const", "attr": {"value": {"tensor": {"dtype": "DT_FLOAT", "tensorShape": {"dim": [{"size": "896"}]}}}, "dtype": {"type": "DT_FLOAT"}}}, {"name": "StatefulPartitionedCall/sequential_3/densenet121/conv5_block12_0_bn/FusedBatchNormV3/Scaled", "op": "Const", "attr": {"value": {"tensor": {"dtype": "DT_FLOAT", "tensorShape": {"dim": [{"size": "864"}]}}}, "dtype": {"type": "DT_FLOAT"}}}, {"name": "StatefulPartitionedCall/sequential_3/densenet121/conv5_block12_0_bn/FusedBatchNormV3/Offset", "op": "Const", "attr": {"dtype": {"type": "DT_FLOAT"}, "value": {"tensor": {"dtype": "DT_FLOAT", "tensorShape": {"dim": [{"size": "864"}]}}}}}, {"name": "StatefulPartitionedCall/sequential_3/densenet121/conv5_block11_0_bn/FusedBatchNormV3/Scaled", "op": "Const", "attr": {"dtype": {"type": "DT_FLOAT"}, "value": {"tensor": {"dtype": "DT_FLOAT", "tensorShape": {"dim": [{"size": "832"}]}}}}}, {"name": "StatefulPartitionedCall/sequential_3/densenet121/conv5_block11_0_bn/FusedBatchNormV3/Offset", "op": "Const", "attr": {"value": {"tensor": {"dtype": "DT_FLOAT", "tensorShape": {"dim": [{"size": "832"}]}}}, "dtype": {"type": "DT_FLOAT"}}}, {"name": "StatefulPartitionedCall/sequential_3/densenet121/conv5_block10_0_bn/FusedBatchNormV3/Scaled", "op": "Const", "attr": {"dtype": {"type": "DT_FLOAT"}, "value": {"tensor": {"dtype": "DT_FLOAT", "tensorShape": {"dim": [{"size": "800"}]}}}}}, {"name": "StatefulPartitionedCall/sequential_3/densenet121/conv5_block10_0_bn/FusedBatchNormV3/Offset", "op": "Const", "attr": {"value": {"tensor": {"dtype": "DT_FLOAT", "tensorShape": {"dim": [{"size": "800"}]}}}, "dtype": {"type": "DT_FLOAT"}}}, {"name": "StatefulPartitionedCall/sequential_3/densenet121/conv5_block9_0_bn/FusedBatchNormV3/Scaled", "op": "Const", "attr": {"value": {"tensor": {"dtype": "DT_FLOAT", "tensorShape": {"dim": [{"size": "768"}]}}}, "dtype": {"type": "DT_FLOAT"}}}, {"name": "StatefulPartitionedCall/sequential_3/densenet121/conv5_block9_0_bn/FusedBatchNormV3/Offset", "op": "Const", "attr": {"dtype": {"type": "DT_FLOAT"}, "value": {"tensor": {"dtype": "DT_FLOAT", "tensorShape": {"dim": [{"size": "768"}]}}}}}, {"name": "StatefulPartitionedCall/sequential_3/densenet121/conv5_block8_0_bn/FusedBatchNormV3/Scaled", "op": "Const", "attr": {"value": {"tensor": {"dtype": "DT_FLOAT", "tensorShape": {"dim": [{"size": "736"}]}}}, "dtype": {"type": "DT_FLOAT"}}}, {"name": "StatefulPartitionedCall/sequential_3/densenet121/conv5_block8_0_bn/FusedBatchNormV3/Offset", "op": "Const", "attr": {"value": {"tensor": {"dtype": "DT_FLOAT", "tensorShape": {"dim": [{"size": "736"}]}}}, "dtype": {"type": "DT_FLOAT"}}}, {"name": "StatefulPartitionedCall/sequential_3/densenet121/conv5_block7_0_bn/FusedBatchNormV3/Scaled", "op": "Const", "attr": {"dtype": {"type": "DT_FLOAT"}, "value": {"tensor": {"dtype": "DT_FLOAT", "tensorShape": {"dim": [{"size": "704"}]}}}}}, {"name": "StatefulPartitionedCall/sequential_3/densenet121/conv5_block7_0_bn/FusedBatchNormV3/Offset", "op": "Const", "attr": {"value": {"tensor": {"dtype": "DT_FLOAT", "tensorShape": {"dim": [{"size": "704"}]}}}, "dtype": {"type": "DT_FLOAT"}}}, {"name": "StatefulPartitionedCall/sequential_3/densenet121/conv5_block6_0_bn/FusedBatchNormV3/Scaled", "op": "Const", "attr": {"dtype": {"type": "DT_FLOAT"}, "value": {"tensor": {"dtype": "DT_FLOAT", "tensorShape": {"dim": [{"size": "672"}]}}}}}, {"name": "StatefulPartitionedCall/sequential_3/densenet121/conv5_block6_0_bn/FusedBatchNormV3/Offset", "op": "Const", "attr": {"value": {"tensor": {"dtype": "DT_FLOAT", "tensorShape": {"dim": [{"size": "672"}]}}}, "dtype": {"type": "DT_FLOAT"}}}, {"name": "StatefulPartitionedCall/sequential_3/densenet121/conv5_block5_0_bn/FusedBatchNormV3/Scaled", "op": "Const", "attr": {"dtype": {"type": "DT_FLOAT"}, "value": {"tensor": {"dtype": "DT_FLOAT", "tensorShape": {"dim": [{"size": "640"}]}}}}}, {"name": "StatefulPartitionedCall/sequential_3/densenet121/conv5_block5_0_bn/FusedBatchNormV3/Offset", "op": "Const", "attr": {"value": {"tensor": {"dtype": "DT_FLOAT", "tensorShape": {"dim": [{"size": "640"}]}}}, "dtype": {"type": "DT_FLOAT"}}}, {"name": "StatefulPartitionedCall/sequential_3/densenet121/conv5_block4_0_bn/FusedBatchNormV3/Scaled", "op": "Const", "attr": {"value": {"tensor": {"dtype": "DT_FLOAT", "tensorShape": {"dim": [{"size": "608"}]}}}, "dtype": {"type": "DT_FLOAT"}}}, {"name": "StatefulPartitionedCall/sequential_3/densenet121/conv5_block4_0_bn/FusedBatchNormV3/Offset", "op": "Const", "attr": {"dtype": {"type": "DT_FLOAT"}, "value": {"tensor": {"dtype": "DT_FLOAT", "tensorShape": {"dim": [{"size": "608"}]}}}}}, {"name": "StatefulPartitionedCall/sequential_3/densenet121/conv5_block3_0_bn/FusedBatchNormV3/Scaled", "op": "Const", "attr": {"dtype": {"type": "DT_FLOAT"}, "value": {"tensor": {"dtype": "DT_FLOAT", "tensorShape": {"dim": [{"size": "576"}]}}}}}, {"name": "StatefulPartitionedCall/sequential_3/densenet121/conv5_block3_0_bn/FusedBatchNormV3/Offset", "op": "Const", "attr": {"dtype": {"type": "DT_FLOAT"}, "value": {"tensor": {"dtype": "DT_FLOAT", "tensorShape": {"dim": [{"size": "576"}]}}}}}, {"name": "StatefulPartitionedCall/sequential_3/densenet121/conv5_block2_0_bn/FusedBatchNormV3/Scaled", "op": "Const", "attr": {"value": {"tensor": {"dtype": "DT_FLOAT", "tensorShape": {"dim": [{"size": "544"}]}}}, "dtype": {"type": "DT_FLOAT"}}}, {"name": "StatefulPartitionedCall/sequential_3/densenet121/conv5_block2_0_bn/FusedBatchNormV3/Offset", "op": "Const", "attr": {"value": {"tensor": {"dtype": "DT_FLOAT", "tensorShape": {"dim": [{"size": "544"}]}}}, "dtype": {"type": "DT_FLOAT"}}}, {"name": "StatefulPartitionedCall/sequential_3/densenet121/conv5_block1_0_bn/FusedBatchNormV3/Scaled", "op": "Const", "attr": {"value": {"tensor": {"dtype": "DT_FLOAT", "tensorShape": {"dim": [{"size": "512"}]}}}, "dtype": {"type": "DT_FLOAT"}}}, {"name": "StatefulPartitionedCall/sequential_3/densenet121/conv5_block1_0_bn/FusedBatchNormV3/Offset", "op": "Const", "attr": {"dtype": {"type": "DT_FLOAT"}, "value": {"tensor": {"dtype": "DT_FLOAT", "tensorShape": {"dim": [{"size": "512"}]}}}}}, {"name": "StatefulPartitionedCall/sequential_3/densenet121/pool4_bn/FusedBatchNormV3/Scaled", "op": "Const", "attr": {"dtype": {"type": "DT_FLOAT"}, "value": {"tensor": {"dtype": "DT_FLOAT", "tensorShape": {"dim": [{"size": "1024"}]}}}}}, {"name": "StatefulPartitionedCall/sequential_3/densenet121/pool4_bn/FusedBatchNormV3/Offset", "op": "Const", "attr": {"dtype": {"type": "DT_FLOAT"}, "value": {"tensor": {"dtype": "DT_FLOAT", "tensorShape": {"dim": [{"size": "1024"}]}}}}}, {"name": "StatefulPartitionedCall/sequential_3/densenet121/conv4_block24_0_bn/FusedBatchNormV3/Scaled", "op": "Const", "attr": {"value": {"tensor": {"dtype": "DT_FLOAT", "tensorShape": {"dim": [{"size": "992"}]}}}, "dtype": {"type": "DT_FLOAT"}}}, {"name": "StatefulPartitionedCall/sequential_3/densenet121/conv4_block24_0_bn/FusedBatchNormV3/Offset", "op": "Const", "attr": {"value": {"tensor": {"dtype": "DT_FLOAT", "tensorShape": {"dim": [{"size": "992"}]}}}, "dtype": {"type": "DT_FLOAT"}}}, {"name": "StatefulPartitionedCall/sequential_3/densenet121/conv4_block23_0_bn/FusedBatchNormV3/Scaled", "op": "Const", "attr": {"dtype": {"type": "DT_FLOAT"}, "value": {"tensor": {"dtype": "DT_FLOAT", "tensorShape": {"dim": [{"size": "960"}]}}}}}, {"name": "StatefulPartitionedCall/sequential_3/densenet121/conv4_block23_0_bn/FusedBatchNormV3/Offset", "op": "Const", "attr": {"dtype": {"type": "DT_FLOAT"}, "value": {"tensor": {"dtype": "DT_FLOAT", "tensorShape": {"dim": [{"size": "960"}]}}}}}, {"name": "StatefulPartitionedCall/sequential_3/densenet121/conv4_block22_0_bn/FusedBatchNormV3/Scaled", "op": "Const", "attr": {"dtype": {"type": "DT_FLOAT"}, "value": {"tensor": {"dtype": "DT_FLOAT", "tensorShape": {"dim": [{"size": "928"}]}}}}}, {"name": "StatefulPartitionedCall/sequential_3/densenet121/conv4_block22_0_bn/FusedBatchNormV3/Offset", "op": "Const", "attr": {"value": {"tensor": {"dtype": "DT_FLOAT", "tensorShape": {"dim": [{"size": "928"}]}}}, "dtype": {"type": "DT_FLOAT"}}}, {"name": "StatefulPartitionedCall/sequential_3/densenet121/conv4_block21_0_bn/FusedBatchNormV3/Scaled", "op": "Const", "attr": {"dtype": {"type": "DT_FLOAT"}, "value": {"tensor": {"dtype": "DT_FLOAT", "tensorShape": {"dim": [{"size": "896"}]}}}}}, {"name": "StatefulPartitionedCall/sequential_3/densenet121/conv4_block21_0_bn/FusedBatchNormV3/Offset", "op": "Const", "attr": {"dtype": {"type": "DT_FLOAT"}, "value": {"tensor": {"dtype": "DT_FLOAT", "tensorShape": {"dim": [{"size": "896"}]}}}}}, {"name": "StatefulPartitionedCall/sequential_3/densenet121/conv4_block20_0_bn/FusedBatchNormV3/Scaled", "op": "Const", "attr": {"dtype": {"type": "DT_FLOAT"}, "value": {"tensor": {"dtype": "DT_FLOAT", "tensorShape": {"dim": [{"size": "864"}]}}}}}, {"name": "StatefulPartitionedCall/sequential_3/densenet121/conv4_block20_0_bn/FusedBatchNormV3/Offset", "op": "Const", "attr": {"value": {"tensor": {"dtype": "DT_FLOAT", "tensorShape": {"dim": [{"size": "864"}]}}}, "dtype": {"type": "DT_FLOAT"}}}, {"name": "StatefulPartitionedCall/sequential_3/densenet121/conv4_block19_0_bn/FusedBatchNormV3/Scaled", "op": "Const", "attr": {"dtype": {"type": "DT_FLOAT"}, "value": {"tensor": {"dtype": "DT_FLOAT", "tensorShape": {"dim": [{"size": "832"}]}}}}}, {"name": "StatefulPartitionedCall/sequential_3/densenet121/conv4_block19_0_bn/FusedBatchNormV3/Offset", "op": "Const", "attr": {"value": {"tensor": {"dtype": "DT_FLOAT", "tensorShape": {"dim": [{"size": "832"}]}}}, "dtype": {"type": "DT_FLOAT"}}}, {"name": "StatefulPartitionedCall/sequential_3/densenet121/conv4_block18_0_bn/FusedBatchNormV3/Scaled", "op": "Const", "attr": {"value": {"tensor": {"dtype": "DT_FLOAT", "tensorShape": {"dim": [{"size": "800"}]}}}, "dtype": {"type": "DT_FLOAT"}}}, {"name": "StatefulPartitionedCall/sequential_3/densenet121/conv4_block18_0_bn/FusedBatchNormV3/Offset", "op": "Const", "attr": {"dtype": {"type": "DT_FLOAT"}, "value": {"tensor": {"dtype": "DT_FLOAT", "tensorShape": {"dim": [{"size": "800"}]}}}}}, {"name": "StatefulPartitionedCall/sequential_3/densenet121/conv4_block17_0_bn/FusedBatchNormV3/Scaled", "op": "Const", "attr": {"dtype": {"type": "DT_FLOAT"}, "value": {"tensor": {"dtype": "DT_FLOAT", "tensorShape": {"dim": [{"size": "768"}]}}}}}, {"name": "StatefulPartitionedCall/sequential_3/densenet121/conv4_block17_0_bn/FusedBatchNormV3/Offset", "op": "Const", "attr": {"dtype": {"type": "DT_FLOAT"}, "value": {"tensor": {"dtype": "DT_FLOAT", "tensorShape": {"dim": [{"size": "768"}]}}}}}, {"name": "StatefulPartitionedCall/sequential_3/densenet121/conv4_block16_0_bn/FusedBatchNormV3/Scaled", "op": "Const", "attr": {"dtype": {"type": "DT_FLOAT"}, "value": {"tensor": {"dtype": "DT_FLOAT", "tensorShape": {"dim": [{"size": "736"}]}}}}}, {"name": "StatefulPartitionedCall/sequential_3/densenet121/conv4_block16_0_bn/FusedBatchNormV3/Offset", "op": "Const", "attr": {"dtype": {"type": "DT_FLOAT"}, "value": {"tensor": {"dtype": "DT_FLOAT", "tensorShape": {"dim": [{"size": "736"}]}}}}}, {"name": "StatefulPartitionedCall/sequential_3/densenet121/conv4_block15_0_bn/FusedBatchNormV3/Scaled", "op": "Const", "attr": {"value": {"tensor": {"dtype": "DT_FLOAT", "tensorShape": {"dim": [{"size": "704"}]}}}, "dtype": {"type": "DT_FLOAT"}}}, {"name": "StatefulPartitionedCall/sequential_3/densenet121/conv4_block15_0_bn/FusedBatchNormV3/Offset", "op": "Const", "attr": {"value": {"tensor": {"dtype": "DT_FLOAT", "tensorShape": {"dim": [{"size": "704"}]}}}, "dtype": {"type": "DT_FLOAT"}}}, {"name": "StatefulPartitionedCall/sequential_3/densenet121/conv4_block14_0_bn/FusedBatchNormV3/Scaled", "op": "Const", "attr": {"dtype": {"type": "DT_FLOAT"}, "value": {"tensor": {"dtype": "DT_FLOAT", "tensorShape": {"dim": [{"size": "672"}]}}}}}, {"name": "StatefulPartitionedCall/sequential_3/densenet121/conv4_block14_0_bn/FusedBatchNormV3/Offset", "op": "Const", "attr": {"dtype": {"type": "DT_FLOAT"}, "value": {"tensor": {"dtype": "DT_FLOAT", "tensorShape": {"dim": [{"size": "672"}]}}}}}, {"name": "StatefulPartitionedCall/sequential_3/densenet121/conv4_block13_0_bn/FusedBatchNormV3/Scaled", "op": "Const", "attr": {"value": {"tensor": {"dtype": "DT_FLOAT", "tensorShape": {"dim": [{"size": "640"}]}}}, "dtype": {"type": "DT_FLOAT"}}}, {"name": "StatefulPartitionedCall/sequential_3/densenet121/conv4_block13_0_bn/FusedBatchNormV3/Offset", "op": "Const", "attr": {"dtype": {"type": "DT_FLOAT"}, "value": {"tensor": {"dtype": "DT_FLOAT", "tensorShape": {"dim": [{"size": "640"}]}}}}}, {"name": "StatefulPartitionedCall/sequential_3/densenet121/conv4_block12_0_bn/FusedBatchNormV3/Scaled", "op": "Const", "attr": {"dtype": {"type": "DT_FLOAT"}, "value": {"tensor": {"dtype": "DT_FLOAT", "tensorShape": {"dim": [{"size": "608"}]}}}}}, {"name": "StatefulPartitionedCall/sequential_3/densenet121/conv4_block12_0_bn/FusedBatchNormV3/Offset", "op": "Const", "attr": {"dtype": {"type": "DT_FLOAT"}, "value": {"tensor": {"dtype": "DT_FLOAT", "tensorShape": {"dim": [{"size": "608"}]}}}}}, {"name": "StatefulPartitionedCall/sequential_3/densenet121/conv4_block11_0_bn/FusedBatchNormV3/Scaled", "op": "Const", "attr": {"value": {"tensor": {"dtype": "DT_FLOAT", "tensorShape": {"dim": [{"size": "576"}]}}}, "dtype": {"type": "DT_FLOAT"}}}, {"name": "StatefulPartitionedCall/sequential_3/densenet121/conv4_block11_0_bn/FusedBatchNormV3/Offset", "op": "Const", "attr": {"value": {"tensor": {"dtype": "DT_FLOAT", "tensorShape": {"dim": [{"size": "576"}]}}}, "dtype": {"type": "DT_FLOAT"}}}, {"name": "StatefulPartitionedCall/sequential_3/densenet121/conv4_block10_0_bn/FusedBatchNormV3/Scaled", "op": "Const", "attr": {"value": {"tensor": {"dtype": "DT_FLOAT", "tensorShape": {"dim": [{"size": "544"}]}}}, "dtype": {"type": "DT_FLOAT"}}}, {"name": "StatefulPartitionedCall/sequential_3/densenet121/conv4_block10_0_bn/FusedBatchNormV3/Offset", "op": "Const", "attr": {"value": {"tensor": {"dtype": "DT_FLOAT", "tensorShape": {"dim": [{"size": "544"}]}}}, "dtype": {"type": "DT_FLOAT"}}}, {"name": "StatefulPartitionedCall/sequential_3/densenet121/conv4_block9_0_bn/FusedBatchNormV3/Scaled", "op": "Const", "attr": {"dtype": {"type": "DT_FLOAT"}, "value": {"tensor": {"dtype": "DT_FLOAT", "tensorShape": {"dim": [{"size": "512"}]}}}}}, {"name": "StatefulPartitionedCall/sequential_3/densenet121/conv4_block9_0_bn/FusedBatchNormV3/Offset", "op": "Const", "attr": {"value": {"tensor": {"dtype": "DT_FLOAT", "tensorShape": {"dim": [{"size": "512"}]}}}, "dtype": {"type": "DT_FLOAT"}}}, {"name": "StatefulPartitionedCall/sequential_3/densenet121/conv4_block8_0_bn/FusedBatchNormV3/Scaled", "op": "Const", "attr": {"dtype": {"type": "DT_FLOAT"}, "value": {"tensor": {"dtype": "DT_FLOAT", "tensorShape": {"dim": [{"size": "480"}]}}}}}, {"name": "StatefulPartitionedCall/sequential_3/densenet121/conv4_block8_0_bn/FusedBatchNormV3/Offset", "op": "Const", "attr": {"value": {"tensor": {"dtype": "DT_FLOAT", "tensorShape": {"dim": [{"size": "480"}]}}}, "dtype": {"type": "DT_FLOAT"}}}, {"name": "StatefulPartitionedCall/sequential_3/densenet121/conv4_block7_0_bn/FusedBatchNormV3/Scaled", "op": "Const", "attr": {"dtype": {"type": "DT_FLOAT"}, "value": {"tensor": {"dtype": "DT_FLOAT", "tensorShape": {"dim": [{"size": "448"}]}}}}}, {"name": "StatefulPartitionedCall/sequential_3/densenet121/conv4_block7_0_bn/FusedBatchNormV3/Offset", "op": "Const", "attr": {"dtype": {"type": "DT_FLOAT"}, "value": {"tensor": {"dtype": "DT_FLOAT", "tensorShape": {"dim": [{"size": "448"}]}}}}}, {"name": "StatefulPartitionedCall/sequential_3/densenet121/conv4_block6_0_bn/FusedBatchNormV3/Scaled", "op": "Const", "attr": {"dtype": {"type": "DT_FLOAT"}, "value": {"tensor": {"dtype": "DT_FLOAT", "tensorShape": {"dim": [{"size": "416"}]}}}}}, {"name": "StatefulPartitionedCall/sequential_3/densenet121/conv4_block6_0_bn/FusedBatchNormV3/Offset", "op": "Const", "attr": {"value": {"tensor": {"dtype": "DT_FLOAT", "tensorShape": {"dim": [{"size": "416"}]}}}, "dtype": {"type": "DT_FLOAT"}}}, {"name": "StatefulPartitionedCall/sequential_3/densenet121/conv4_block5_0_bn/FusedBatchNormV3/Scaled", "op": "Const", "attr": {"value": {"tensor": {"dtype": "DT_FLOAT", "tensorShape": {"dim": [{"size": "384"}]}}}, "dtype": {"type": "DT_FLOAT"}}}, {"name": "StatefulPartitionedCall/sequential_3/densenet121/conv4_block5_0_bn/FusedBatchNormV3/Offset", "op": "Const", "attr": {"value": {"tensor": {"dtype": "DT_FLOAT", "tensorShape": {"dim": [{"size": "384"}]}}}, "dtype": {"type": "DT_FLOAT"}}}, {"name": "StatefulPartitionedCall/sequential_3/densenet121/conv4_block4_0_bn/FusedBatchNormV3/Scaled", "op": "Const", "attr": {"dtype": {"type": "DT_FLOAT"}, "value": {"tensor": {"dtype": "DT_FLOAT", "tensorShape": {"dim": [{"size": "352"}]}}}}}, {"name": "StatefulPartitionedCall/sequential_3/densenet121/conv4_block4_0_bn/FusedBatchNormV3/Offset", "op": "Const", "attr": {"value": {"tensor": {"dtype": "DT_FLOAT", "tensorShape": {"dim": [{"size": "352"}]}}}, "dtype": {"type": "DT_FLOAT"}}}, {"name": "StatefulPartitionedCall/sequential_3/densenet121/conv4_block3_0_bn/FusedBatchNormV3/Scaled", "op": "Const", "attr": {"value": {"tensor": {"dtype": "DT_FLOAT", "tensorShape": {"dim": [{"size": "320"}]}}}, "dtype": {"type": "DT_FLOAT"}}}, {"name": "StatefulPartitionedCall/sequential_3/densenet121/conv4_block3_0_bn/FusedBatchNormV3/Offset", "op": "Const", "attr": {"value": {"tensor": {"dtype": "DT_FLOAT", "tensorShape": {"dim": [{"size": "320"}]}}}, "dtype": {"type": "DT_FLOAT"}}}, {"name": "StatefulPartitionedCall/sequential_3/densenet121/conv4_block2_0_bn/FusedBatchNormV3/Scaled", "op": "Const", "attr": {"value": {"tensor": {"dtype": "DT_FLOAT", "tensorShape": {"dim": [{"size": "288"}]}}}, "dtype": {"type": "DT_FLOAT"}}}, {"name": "StatefulPartitionedCall/sequential_3/densenet121/conv4_block2_0_bn/FusedBatchNormV3/Offset", "op": "Const", "attr": {"dtype": {"type": "DT_FLOAT"}, "value": {"tensor": {"dtype": "DT_FLOAT", "tensorShape": {"dim": [{"size": "288"}]}}}}}, {"name": "StatefulPartitionedCall/sequential_3/densenet121/conv4_block1_0_bn/FusedBatchNormV3/Scaled", "op": "Const", "attr": {"value": {"tensor": {"dtype": "DT_FLOAT", "tensorShape": {"dim": [{"size": "256"}]}}}, "dtype": {"type": "DT_FLOAT"}}}, {"name": "StatefulPartitionedCall/sequential_3/densenet121/conv4_block1_0_bn/FusedBatchNormV3/Offset", "op": "Const", "attr": {"value": {"tensor": {"dtype": "DT_FLOAT", "tensorShape": {"dim": [{"size": "256"}]}}}, "dtype": {"type": "DT_FLOAT"}}}, {"name": "StatefulPartitionedCall/sequential_3/densenet121/pool3_bn/FusedBatchNormV3/Scaled", "op": "Const", "attr": {"value": {"tensor": {"dtype": "DT_FLOAT", "tensorShape": {"dim": [{"size": "512"}]}}}, "dtype": {"type": "DT_FLOAT"}}}, {"name": "StatefulPartitionedCall/sequential_3/densenet121/pool3_bn/FusedBatchNormV3/Offset", "op": "Const", "attr": {"value": {"tensor": {"dtype": "DT_FLOAT", "tensorShape": {"dim": [{"size": "512"}]}}}, "dtype": {"type": "DT_FLOAT"}}}, {"name": "StatefulPartitionedCall/sequential_3/densenet121/conv3_block12_0_bn/FusedBatchNormV3/Scaled", "op": "Const", "attr": {"dtype": {"type": "DT_FLOAT"}, "value": {"tensor": {"dtype": "DT_FLOAT", "tensorShape": {"dim": [{"size": "480"}]}}}}}, {"name": "StatefulPartitionedCall/sequential_3/densenet121/conv3_block12_0_bn/FusedBatchNormV3/Offset", "op": "Const", "attr": {"value": {"tensor": {"dtype": "DT_FLOAT", "tensorShape": {"dim": [{"size": "480"}]}}}, "dtype": {"type": "DT_FLOAT"}}}, {"name": "StatefulPartitionedCall/sequential_3/densenet121/conv3_block11_0_bn/FusedBatchNormV3/Scaled", "op": "Const", "attr": {"value": {"tensor": {"dtype": "DT_FLOAT", "tensorShape": {"dim": [{"size": "448"}]}}}, "dtype": {"type": "DT_FLOAT"}}}, {"name": "StatefulPartitionedCall/sequential_3/densenet121/zero_padding2d_6/Pad", "op": "Pad", "input": ["densenet121_input", "StatefulPartitionedCall/sequential_3/densenet121/zero_padding2d_6/Pad/paddings"], "attr": {"T": {"type": "DT_FLOAT"}, "Tpaddings": {"type": "DT_INT32"}}}, {"name": "StatefulPartitionedCall/sequential_3/densenet121/conv1/relu/Relu", "op": "_FusedConv2D", "input": ["StatefulPartitionedCall/sequential_3/densenet121/zero_padding2d_6/Pad", "StatefulPartitionedCall/sequential_3/densenet121/conv1/conv/Conv2D_weights", "StatefulPartitionedCall/sequential_3/densenet121/conv1/conv/Conv2D_bn_offset"], "device": "/device:CPU:0", "attr": {"dilations": {"list": {"i": ["1", "1", "1", "1"]}}, "T": {"type": "DT_FLOAT"}, "fused_ops": {"list": {"s": ["Qmlhc0FkZA==", "UmVsdQ=="]}}, "padding": {"s": "VkFMSUQ="}, "use_cudnn_on_gpu": {"b": true}, "strides": {"list": {"i": ["1", "2", "2", "1"]}}, "epsilon": {"f": 0.0}, "data_format": {"s": "TkhXQw=="}, "num_args": {"i": "1"}, "explicit_paddings": {"list": {}}}}, {"name": "StatefulPartitionedCall/sequential_3/densenet121/zero_padding2d_7/Pad", "op": "Pad", "input": ["StatefulPartitionedCall/sequential_3/densenet121/conv1/relu/Relu", "StatefulPartitionedCall/sequential_3/densenet121/zero_padding2d_7/Pad/paddings"], "attr": {"T": {"type": "DT_FLOAT"}, "Tpaddings": {"type": "DT_INT32"}}}, {"name": "StatefulPartitionedCall/sequential_3/densenet121/pool1/MaxPool", "op": "MaxPool", "input": ["StatefulPartitionedCall/sequential_3/densenet121/zero_padding2d_7/Pad"], "attr": {"data_format": {"s": "TkhXQw=="}, "padding": {"s": "VkFMSUQ="}, "ksize": {"list": {"i": ["1", "3", "3", "1"]}}, "explicit_paddings": {"list": {}}, "strides": {"list": {"i": ["1", "2", "2", "1"]}}, "T": {"type": "DT_FLOAT"}}}, {"name": "StatefulPartitionedCall/sequential_3/densenet121/conv2_block1_0_bn/FusedBatchNormV3/Mul", "op": "Mul", "input": ["StatefulPartitionedCall/sequential_3/densenet121/pool1/MaxPool", "StatefulPartitionedCall/sequential_3/densenet121/conv2_block1_0_bn/FusedBatchNormV3/Scaled"], "attr": {"T": {"type": "DT_FLOAT"}}}, {"name": "StatefulPartitionedCall/sequential_3/densenet121/conv2_block1_0_bn/FusedBatchNormV3", "op": "Add", "input": ["StatefulPartitionedCall/sequential_3/densenet121/conv2_block1_0_bn/FusedBatchNormV3/Mul", "StatefulPartitionedCall/sequential_3/densenet121/conv2_block1_0_bn/FusedBatchNormV3/Offset"], "attr": {"T": {"type": "DT_FLOAT"}}}, {"name": "StatefulPartitionedCall/sequential_3/densenet121/conv2_block1_0_relu/Relu", "op": "Relu", "input": ["StatefulPartitionedCall/sequential_3/densenet121/conv2_block1_0_bn/FusedBatchNormV3"], "attr": {"T": {"type": "DT_FLOAT"}}}, {"name": "StatefulPartitionedCall/sequential_3/densenet121/conv2_block1_1_relu/Relu", "op": "_FusedConv2D", "input": ["StatefulPartitionedCall/sequential_3/densenet121/conv2_block1_0_relu/Relu", "StatefulPartitionedCall/sequential_3/densenet121/conv2_block1_1_conv/Conv2D_weights", "StatefulPartitionedCall/sequential_3/densenet121/conv2_block1_1_conv/Conv2D_bn_offset"], "device": "/device:CPU:0", "attr": {"num_args": {"i": "1"}, "T": {"type": "DT_FLOAT"}, "use_cudnn_on_gpu": {"b": true}, "explicit_paddings": {"list": {}}, "padding": {"s": "VkFMSUQ="}, "epsilon": {"f": 0.0}, "strides": {"list": {"i": ["1", "1", "1", "1"]}}, "data_format": {"s": "TkhXQw=="}, "dilations": {"list": {"i": ["1", "1", "1", "1"]}}, "fused_ops": {"list": {"s": ["Qmlhc0FkZA==", "UmVsdQ=="]}}}}, {"name": "StatefulPartitionedCall/sequential_3/densenet121/conv2_block1_2_conv/Conv2D", "op": "Conv2D", "input": ["StatefulPartitionedCall/sequential_3/densenet121/conv2_block1_1_relu/Relu", "StatefulPartitionedCall/sequential_3/densenet121/conv2_block1_2_conv/Conv2D/ReadVariableOp"], "device": "/device:CPU:0", "attr": {"strides": {"list": {"i": ["1", "1", "1", "1"]}}, "explicit_paddings": {"list": {}}, "dilations": {"list": {"i": ["1", "1", "1", "1"]}}, "data_format": {"s": "TkhXQw=="}, "T": {"type": "DT_FLOAT"}, "use_cudnn_on_gpu": {"b": true}, "padding": {"s": "U0FNRQ=="}}}, {"name": "StatefulPartitionedCall/sequential_3/densenet121/conv2_block1_concat/concat", "op": "ConcatV2", "input": ["StatefulPartitionedCall/sequential_3/densenet121/pool1/MaxPool", "StatefulPartitionedCall/sequential_3/densenet121/conv2_block1_2_conv/Conv2D", "StatefulPartitionedCall/sequential_3/densenet121/conv2_block1_concat/concat/axis"], "attr": {"N": {"i": "2"}, "Tidx": {"type": "DT_INT32"}, "T": {"type": "DT_FLOAT"}}}, {"name": "StatefulPartitionedCall/sequential_3/densenet121/conv2_block2_0_bn/FusedBatchNormV3/Mul", "op": "Mul", "input": ["StatefulPartitionedCall/sequential_3/densenet121/conv2_block1_concat/concat", "StatefulPartitionedCall/sequential_3/densenet121/conv2_block2_0_bn/FusedBatchNormV3/Scaled"], "attr": {"T": {"type": "DT_FLOAT"}}}, {"name": "StatefulPartitionedCall/sequential_3/densenet121/conv2_block2_0_bn/FusedBatchNormV3", "op": "Add", "input": ["StatefulPartitionedCall/sequential_3/densenet121/conv2_block2_0_bn/FusedBatchNormV3/Mul", "StatefulPartitionedCall/sequential_3/densenet121/conv2_block2_0_bn/FusedBatchNormV3/Offset"], "attr": {"T": {"type": "DT_FLOAT"}}}, {"name": "StatefulPartitionedCall/sequential_3/densenet121/conv2_block2_0_relu/Relu", "op": "Relu", "input": ["StatefulPartitionedCall/sequential_3/densenet121/conv2_block2_0_bn/FusedBatchNormV3"], "attr": {"T": {"type": "DT_FLOAT"}}}, {"name": "StatefulPartitionedCall/sequential_3/densenet121/conv2_block2_1_relu/Relu", "op": "_FusedConv2D", "input": ["StatefulPartitionedCall/sequential_3/densenet121/conv2_block2_0_relu/Relu", "StatefulPartitionedCall/sequential_3/densenet121/conv2_block2_1_conv/Conv2D_weights", "StatefulPartitionedCall/sequential_3/densenet121/conv2_block2_1_conv/Conv2D_bn_offset"], "device": "/device:CPU:0", "attr": {"num_args": {"i": "1"}, "explicit_paddings": {"list": {}}, "padding": {"s": "VkFMSUQ="}, "strides": {"list": {"i": ["1", "1", "1", "1"]}}, "use_cudnn_on_gpu": {"b": true}, "data_format": {"s": "TkhXQw=="}, "T": {"type": "DT_FLOAT"}, "epsilon": {"f": 0.0}, "fused_ops": {"list": {"s": ["Qmlhc0FkZA==", "UmVsdQ=="]}}, "dilations": {"list": {"i": ["1", "1", "1", "1"]}}}}, {"name": "StatefulPartitionedCall/sequential_3/densenet121/conv2_block2_2_conv/Conv2D", "op": "Conv2D", "input": ["StatefulPartitionedCall/sequential_3/densenet121/conv2_block2_1_relu/Relu", "StatefulPartitionedCall/sequential_3/densenet121/conv2_block2_2_conv/Conv2D/ReadVariableOp"], "device": "/device:CPU:0", "attr": {"explicit_paddings": {"list": {}}, "use_cudnn_on_gpu": {"b": true}, "T": {"type": "DT_FLOAT"}, "padding": {"s": "U0FNRQ=="}, "strides": {"list": {"i": ["1", "1", "1", "1"]}}, "dilations": {"list": {"i": ["1", "1", "1", "1"]}}, "data_format": {"s": "TkhXQw=="}}}, {"name": "StatefulPartitionedCall/sequential_3/densenet121/conv2_block2_concat/concat", "op": "ConcatV2", "input": ["StatefulPartitionedCall/sequential_3/densenet121/conv2_block1_concat/concat", "StatefulPartitionedCall/sequential_3/densenet121/conv2_block2_2_conv/Conv2D", "StatefulPartitionedCall/sequential_3/densenet121/conv2_block2_concat/concat/axis"], "attr": {"Tidx": {"type": "DT_INT32"}, "T": {"type": "DT_FLOAT"}, "N": {"i": "2"}}}, {"name": "StatefulPartitionedCall/sequential_3/densenet121/conv2_block3_0_bn/FusedBatchNormV3/Mul", "op": "Mul", "input": ["StatefulPartitionedCall/sequential_3/densenet121/conv2_block2_concat/concat", "StatefulPartitionedCall/sequential_3/densenet121/conv2_block3_0_bn/FusedBatchNormV3/Scaled"], "attr": {"T": {"type": "DT_FLOAT"}}}, {"name": "StatefulPartitionedCall/sequential_3/densenet121/conv2_block3_0_bn/FusedBatchNormV3", "op": "Add", "input": ["StatefulPartitionedCall/sequential_3/densenet121/conv2_block3_0_bn/FusedBatchNormV3/Mul", "StatefulPartitionedCall/sequential_3/densenet121/conv2_block3_0_bn/FusedBatchNormV3/Offset"], "attr": {"T": {"type": "DT_FLOAT"}}}, {"name": "StatefulPartitionedCall/sequential_3/densenet121/conv2_block3_0_relu/Relu", "op": "Relu", "input": ["StatefulPartitionedCall/sequential_3/densenet121/conv2_block3_0_bn/FusedBatchNormV3"], "attr": {"T": {"type": "DT_FLOAT"}}}, {"name": "StatefulPartitionedCall/sequential_3/densenet121/conv2_block3_1_relu/Relu", "op": "_FusedConv2D", "input": ["StatefulPartitionedCall/sequential_3/densenet121/conv2_block3_0_relu/Relu", "StatefulPartitionedCall/sequential_3/densenet121/conv2_block3_1_conv/Conv2D_weights", "StatefulPartitionedCall/sequential_3/densenet121/conv2_block3_1_conv/Conv2D_bn_offset"], "device": "/device:CPU:0", "attr": {"data_format": {"s": "TkhXQw=="}, "fused_ops": {"list": {"s": ["Qmlhc0FkZA==", "UmVsdQ=="]}}, "padding": {"s": "VkFMSUQ="}, "dilations": {"list": {"i": ["1", "1", "1", "1"]}}, "strides": {"list": {"i": ["1", "1", "1", "1"]}}, "T": {"type": "DT_FLOAT"}, "explicit_paddings": {"list": {}}, "use_cudnn_on_gpu": {"b": true}, "num_args": {"i": "1"}, "epsilon": {"f": 0.0}}}, {"name": "StatefulPartitionedCall/sequential_3/densenet121/conv2_block3_2_conv/Conv2D", "op": "Conv2D", "input": ["StatefulPartitionedCall/sequential_3/densenet121/conv2_block3_1_relu/Relu", "StatefulPartitionedCall/sequential_3/densenet121/conv2_block3_2_conv/Conv2D/ReadVariableOp"], "device": "/device:CPU:0", "attr": {"T": {"type": "DT_FLOAT"}, "strides": {"list": {"i": ["1", "1", "1", "1"]}}, "explicit_paddings": {"list": {}}, "padding": {"s": "U0FNRQ=="}, "use_cudnn_on_gpu": {"b": true}, "dilations": {"list": {"i": ["1", "1", "1", "1"]}}, "data_format": {"s": "TkhXQw=="}}}, {"name": "StatefulPartitionedCall/sequential_3/densenet121/conv2_block3_concat/concat", "op": "ConcatV2", "input": ["StatefulPartitionedCall/sequential_3/densenet121/conv2_block2_concat/concat", "StatefulPartitionedCall/sequential_3/densenet121/conv2_block3_2_conv/Conv2D", "StatefulPartitionedCall/sequential_3/densenet121/conv2_block3_concat/concat/axis"], "attr": {"T": {"type": "DT_FLOAT"}, "Tidx": {"type": "DT_INT32"}, "N": {"i": "2"}}}, {"name": "StatefulPartitionedCall/sequential_3/densenet121/conv2_block4_0_bn/FusedBatchNormV3/Mul", "op": "Mul", "input": ["StatefulPartitionedCall/sequential_3/densenet121/conv2_block3_concat/concat", "StatefulPartitionedCall/sequential_3/densenet121/conv2_block4_0_bn/FusedBatchNormV3/Scaled"], "attr": {"T": {"type": "DT_FLOAT"}}}, {"name": "StatefulPartitionedCall/sequential_3/densenet121/conv2_block4_0_bn/FusedBatchNormV3", "op": "Add", "input": ["StatefulPartitionedCall/sequential_3/densenet121/conv2_block4_0_bn/FusedBatchNormV3/Mul", "StatefulPartitionedCall/sequential_3/densenet121/conv2_block4_0_bn/FusedBatchNormV3/Offset"], "attr": {"T": {"type": "DT_FLOAT"}}}, {"name": "StatefulPartitionedCall/sequential_3/densenet121/conv2_block4_0_relu/Relu", "op": "Relu", "input": ["StatefulPartitionedCall/sequential_3/densenet121/conv2_block4_0_bn/FusedBatchNormV3"], "attr": {"T": {"type": "DT_FLOAT"}}}, {"name": "StatefulPartitionedCall/sequential_3/densenet121/conv2_block4_1_relu/Relu", "op": "_FusedConv2D", "input": ["StatefulPartitionedCall/sequential_3/densenet121/conv2_block4_0_relu/Relu", "StatefulPartitionedCall/sequential_3/densenet121/conv2_block4_1_conv/Conv2D_weights", "StatefulPartitionedCall/sequential_3/densenet121/conv2_block4_1_conv/Conv2D_bn_offset"], "device": "/device:CPU:0", "attr": {"epsilon": {"f": 0.0}, "fused_ops": {"list": {"s": ["Qmlhc0FkZA==", "UmVsdQ=="]}}, "explicit_paddings": {"list": {}}, "num_args": {"i": "1"}, "padding": {"s": "VkFMSUQ="}, "data_format": {"s": "TkhXQw=="}, "strides": {"list": {"i": ["1", "1", "1", "1"]}}, "T": {"type": "DT_FLOAT"}, "dilations": {"list": {"i": ["1", "1", "1", "1"]}}, "use_cudnn_on_gpu": {"b": true}}}, {"name": "StatefulPartitionedCall/sequential_3/densenet121/conv2_block4_2_conv/Conv2D", "op": "Conv2D", "input": ["StatefulPartitionedCall/sequential_3/densenet121/conv2_block4_1_relu/Relu", "StatefulPartitionedCall/sequential_3/densenet121/conv2_block4_2_conv/Conv2D/ReadVariableOp"], "device": "/device:CPU:0", "attr": {"T": {"type": "DT_FLOAT"}, "strides": {"list": {"i": ["1", "1", "1", "1"]}}, "padding": {"s": "U0FNRQ=="}, "dilations": {"list": {"i": ["1", "1", "1", "1"]}}, "explicit_paddings": {"list": {}}, "use_cudnn_on_gpu": {"b": true}, "data_format": {"s": "TkhXQw=="}}}, {"name": "StatefulPartitionedCall/sequential_3/densenet121/conv2_block4_concat/concat", "op": "ConcatV2", "input": ["StatefulPartitionedCall/sequential_3/densenet121/conv2_block3_concat/concat", "StatefulPartitionedCall/sequential_3/densenet121/conv2_block4_2_conv/Conv2D", "StatefulPartitionedCall/sequential_3/densenet121/conv2_block4_concat/concat/axis"], "attr": {"Tidx": {"type": "DT_INT32"}, "T": {"type": "DT_FLOAT"}, "N": {"i": "2"}}}, {"name": "StatefulPartitionedCall/sequential_3/densenet121/conv2_block5_0_bn/FusedBatchNormV3/Mul", "op": "Mul", "input": ["StatefulPartitionedCall/sequential_3/densenet121/conv2_block4_concat/concat", "StatefulPartitionedCall/sequential_3/densenet121/conv2_block5_0_bn/FusedBatchNormV3/Scaled"], "attr": {"T": {"type": "DT_FLOAT"}}}, {"name": "StatefulPartitionedCall/sequential_3/densenet121/conv2_block5_0_bn/FusedBatchNormV3", "op": "Add", "input": ["StatefulPartitionedCall/sequential_3/densenet121/conv2_block5_0_bn/FusedBatchNormV3/Mul", "StatefulPartitionedCall/sequential_3/densenet121/conv2_block5_0_bn/FusedBatchNormV3/Offset"], "attr": {"T": {"type": "DT_FLOAT"}}}, {"name": "StatefulPartitionedCall/sequential_3/densenet121/conv2_block5_0_relu/Relu", "op": "Relu", "input": ["StatefulPartitionedCall/sequential_3/densenet121/conv2_block5_0_bn/FusedBatchNormV3"], "attr": {"T": {"type": "DT_FLOAT"}}}, {"name": "StatefulPartitionedCall/sequential_3/densenet121/conv2_block5_1_relu/Relu", "op": "_FusedConv2D", "input": ["StatefulPartitionedCall/sequential_3/densenet121/conv2_block5_0_relu/Relu", "StatefulPartitionedCall/sequential_3/densenet121/conv2_block5_1_conv/Conv2D_weights", "StatefulPartitionedCall/sequential_3/densenet121/conv2_block5_1_conv/Conv2D_bn_offset"], "device": "/device:CPU:0", "attr": {"fused_ops": {"list": {"s": ["Qmlhc0FkZA==", "UmVsdQ=="]}}, "epsilon": {"f": 0.0}, "padding": {"s": "VkFMSUQ="}, "T": {"type": "DT_FLOAT"}, "num_args": {"i": "1"}, "strides": {"list": {"i": ["1", "1", "1", "1"]}}, "explicit_paddings": {"list": {}}, "dilations": {"list": {"i": ["1", "1", "1", "1"]}}, "use_cudnn_on_gpu": {"b": true}, "data_format": {"s": "TkhXQw=="}}}, {"name": "StatefulPartitionedCall/sequential_3/densenet121/conv2_block5_2_conv/Conv2D", "op": "Conv2D", "input": ["StatefulPartitionedCall/sequential_3/densenet121/conv2_block5_1_relu/Relu", "StatefulPartitionedCall/sequential_3/densenet121/conv2_block5_2_conv/Conv2D/ReadVariableOp"], "device": "/device:CPU:0", "attr": {"strides": {"list": {"i": ["1", "1", "1", "1"]}}, "padding": {"s": "U0FNRQ=="}, "dilations": {"list": {"i": ["1", "1", "1", "1"]}}, "T": {"type": "DT_FLOAT"}, "data_format": {"s": "TkhXQw=="}, "explicit_paddings": {"list": {}}, "use_cudnn_on_gpu": {"b": true}}}, {"name": "StatefulPartitionedCall/sequential_3/densenet121/conv2_block5_concat/concat", "op": "ConcatV2", "input": ["StatefulPartitionedCall/sequential_3/densenet121/conv2_block4_concat/concat", "StatefulPartitionedCall/sequential_3/densenet121/conv2_block5_2_conv/Conv2D", "StatefulPartitionedCall/sequential_3/densenet121/conv2_block5_concat/concat/axis"], "attr": {"Tidx": {"type": "DT_INT32"}, "N": {"i": "2"}, "T": {"type": "DT_FLOAT"}}}, {"name": "StatefulPartitionedCall/sequential_3/densenet121/conv2_block6_0_bn/FusedBatchNormV3/Mul", "op": "Mul", "input": ["StatefulPartitionedCall/sequential_3/densenet121/conv2_block5_concat/concat", "StatefulPartitionedCall/sequential_3/densenet121/conv2_block6_0_bn/FusedBatchNormV3/Scaled"], "attr": {"T": {"type": "DT_FLOAT"}}}, {"name": "StatefulPartitionedCall/sequential_3/densenet121/conv2_block6_0_bn/FusedBatchNormV3", "op": "Add", "input": ["StatefulPartitionedCall/sequential_3/densenet121/conv2_block6_0_bn/FusedBatchNormV3/Mul", "StatefulPartitionedCall/sequential_3/densenet121/conv2_block6_0_bn/FusedBatchNormV3/Offset"], "attr": {"T": {"type": "DT_FLOAT"}}}, {"name": "StatefulPartitionedCall/sequential_3/densenet121/conv2_block6_0_relu/Relu", "op": "Relu", "input": ["StatefulPartitionedCall/sequential_3/densenet121/conv2_block6_0_bn/FusedBatchNormV3"], "attr": {"T": {"type": "DT_FLOAT"}}}, {"name": "StatefulPartitionedCall/sequential_3/densenet121/conv2_block6_1_relu/Relu", "op": "_FusedConv2D", "input": ["StatefulPartitionedCall/sequential_3/densenet121/conv2_block6_0_relu/Relu", "StatefulPartitionedCall/sequential_3/densenet121/conv2_block6_1_conv/Conv2D_weights", "StatefulPartitionedCall/sequential_3/densenet121/conv2_block6_1_conv/Conv2D_bn_offset"], "device": "/device:CPU:0", "attr": {"num_args": {"i": "1"}, "fused_ops": {"list": {"s": ["Qmlhc0FkZA==", "UmVsdQ=="]}}, "use_cudnn_on_gpu": {"b": true}, "epsilon": {"f": 0.0}, "padding": {"s": "VkFMSUQ="}, "data_format": {"s": "TkhXQw=="}, "strides": {"list": {"i": ["1", "1", "1", "1"]}}, "T": {"type": "DT_FLOAT"}, "dilations": {"list": {"i": ["1", "1", "1", "1"]}}, "explicit_paddings": {"list": {}}}}, {"name": "StatefulPartitionedCall/sequential_3/densenet121/conv2_block6_2_conv/Conv2D", "op": "Conv2D", "input": ["StatefulPartitionedCall/sequential_3/densenet121/conv2_block6_1_relu/Relu", "StatefulPartitionedCall/sequential_3/densenet121/conv2_block6_2_conv/Conv2D/ReadVariableOp"], "device": "/device:CPU:0", "attr": {"explicit_paddings": {"list": {}}, "padding": {"s": "U0FNRQ=="}, "use_cudnn_on_gpu": {"b": true}, "T": {"type": "DT_FLOAT"}, "dilations": {"list": {"i": ["1", "1", "1", "1"]}}, "strides": {"list": {"i": ["1", "1", "1", "1"]}}, "data_format": {"s": "TkhXQw=="}}}, {"name": "StatefulPartitionedCall/sequential_3/densenet121/conv2_block6_concat/concat", "op": "ConcatV2", "input": ["StatefulPartitionedCall/sequential_3/densenet121/conv2_block5_concat/concat", "StatefulPartitionedCall/sequential_3/densenet121/conv2_block6_2_conv/Conv2D", "StatefulPartitionedCall/sequential_3/densenet121/conv2_block6_concat/concat/axis"], "attr": {"N": {"i": "2"}, "Tidx": {"type": "DT_INT32"}, "T": {"type": "DT_FLOAT"}}}, {"name": "StatefulPartitionedCall/sequential_3/densenet121/pool2_bn/FusedBatchNormV3/Mul", "op": "Mul", "input": ["StatefulPartitionedCall/sequential_3/densenet121/conv2_block6_concat/concat", "StatefulPartitionedCall/sequential_3/densenet121/pool2_bn/FusedBatchNormV3/Scaled"], "attr": {"T": {"type": "DT_FLOAT"}}}, {"name": "StatefulPartitionedCall/sequential_3/densenet121/pool2_bn/FusedBatchNormV3", "op": "Add", "input": ["StatefulPartitionedCall/sequential_3/densenet121/pool2_bn/FusedBatchNormV3/Mul", "StatefulPartitionedCall/sequential_3/densenet121/pool2_bn/FusedBatchNormV3/Offset"], "attr": {"T": {"type": "DT_FLOAT"}}}, {"name": "StatefulPartitionedCall/sequential_3/densenet121/pool2_relu/Relu", "op": "Relu", "input": ["StatefulPartitionedCall/sequential_3/densenet121/pool2_bn/FusedBatchNormV3"], "attr": {"T": {"type": "DT_FLOAT"}}}, {"name": "StatefulPartitionedCall/sequential_3/densenet121/pool2_conv/Conv2D", "op": "Conv2D", "input": ["StatefulPartitionedCall/sequential_3/densenet121/pool2_relu/Relu", "StatefulPartitionedCall/sequential_3/densenet121/pool2_conv/Conv2D/ReadVariableOp"], "device": "/device:CPU:0", "attr": {"explicit_paddings": {"list": {}}, "strides": {"list": {"i": ["1", "1", "1", "1"]}}, "T": {"type": "DT_FLOAT"}, "dilations": {"list": {"i": ["1", "1", "1", "1"]}}, "padding": {"s": "VkFMSUQ="}, "data_format": {"s": "TkhXQw=="}, "use_cudnn_on_gpu": {"b": true}}}, {"name": "StatefulPartitionedCall/sequential_3/densenet121/pool2_pool/AvgPool", "op": "AvgPool", "input": ["StatefulPartitionedCall/sequential_3/densenet121/pool2_conv/Conv2D"], "attr": {"strides": {"list": {"i": ["1", "2", "2", "1"]}}, "ksize": {"list": {"i": ["1", "2", "2", "1"]}}, "T": {"type": "DT_FLOAT"}, "data_format": {"s": "TkhXQw=="}, "padding": {"s": "VkFMSUQ="}}}, {"name": "StatefulPartitionedCall/sequential_3/densenet121/conv3_block1_0_bn/FusedBatchNormV3/Mul", "op": "Mul", "input": ["StatefulPartitionedCall/sequential_3/densenet121/pool2_pool/AvgPool", "StatefulPartitionedCall/sequential_3/densenet121/conv3_block1_0_bn/FusedBatchNormV3/Scaled"], "attr": {"T": {"type": "DT_FLOAT"}}}, {"name": "StatefulPartitionedCall/sequential_3/densenet121/conv3_block1_0_bn/FusedBatchNormV3", "op": "Add", "input": ["StatefulPartitionedCall/sequential_3/densenet121/conv3_block1_0_bn/FusedBatchNormV3/Mul", "StatefulPartitionedCall/sequential_3/densenet121/conv3_block1_0_bn/FusedBatchNormV3/Offset"], "attr": {"T": {"type": "DT_FLOAT"}}}, {"name": "StatefulPartitionedCall/sequential_3/densenet121/conv3_block1_0_relu/Relu", "op": "Relu", "input": ["StatefulPartitionedCall/sequential_3/densenet121/conv3_block1_0_bn/FusedBatchNormV3"], "attr": {"T": {"type": "DT_FLOAT"}}}, {"name": "StatefulPartitionedCall/sequential_3/densenet121/conv3_block1_1_relu/Relu", "op": "_FusedConv2D", "input": ["StatefulPartitionedCall/sequential_3/densenet121/conv3_block1_0_relu/Relu", "StatefulPartitionedCall/sequential_3/densenet121/conv3_block1_1_conv/Conv2D_weights", "StatefulPartitionedCall/sequential_3/densenet121/conv3_block1_1_conv/Conv2D_bn_offset"], "device": "/device:CPU:0", "attr": {"strides": {"list": {"i": ["1", "1", "1", "1"]}}, "num_args": {"i": "1"}, "padding": {"s": "VkFMSUQ="}, "fused_ops": {"list": {"s": ["Qmlhc0FkZA==", "UmVsdQ=="]}}, "T": {"type": "DT_FLOAT"}, "explicit_paddings": {"list": {}}, "use_cudnn_on_gpu": {"b": true}, "dilations": {"list": {"i": ["1", "1", "1", "1"]}}, "data_format": {"s": "TkhXQw=="}, "epsilon": {"f": 0.0}}}, {"name": "StatefulPartitionedCall/sequential_3/densenet121/conv3_block1_2_conv/Conv2D", "op": "Conv2D", "input": ["StatefulPartitionedCall/sequential_3/densenet121/conv3_block1_1_relu/Relu", "StatefulPartitionedCall/sequential_3/densenet121/conv3_block1_2_conv/Conv2D/ReadVariableOp"], "device": "/device:CPU:0", "attr": {"explicit_paddings": {"list": {}}, "data_format": {"s": "TkhXQw=="}, "T": {"type": "DT_FLOAT"}, "use_cudnn_on_gpu": {"b": true}, "padding": {"s": "U0FNRQ=="}, "dilations": {"list": {"i": ["1", "1", "1", "1"]}}, "strides": {"list": {"i": ["1", "1", "1", "1"]}}}}, {"name": "StatefulPartitionedCall/sequential_3/densenet121/conv3_block1_concat/concat", "op": "ConcatV2", "input": ["StatefulPartitionedCall/sequential_3/densenet121/pool2_pool/AvgPool", "StatefulPartitionedCall/sequential_3/densenet121/conv3_block1_2_conv/Conv2D", "StatefulPartitionedCall/sequential_3/densenet121/conv3_block1_concat/concat/axis"], "attr": {"T": {"type": "DT_FLOAT"}, "Tidx": {"type": "DT_INT32"}, "N": {"i": "2"}}}, {"name": "StatefulPartitionedCall/sequential_3/densenet121/conv3_block2_0_bn/FusedBatchNormV3/Mul", "op": "Mul", "input": ["StatefulPartitionedCall/sequential_3/densenet121/conv3_block1_concat/concat", "StatefulPartitionedCall/sequential_3/densenet121/conv3_block2_0_bn/FusedBatchNormV3/Scaled"], "attr": {"T": {"type": "DT_FLOAT"}}}, {"name": "StatefulPartitionedCall/sequential_3/densenet121/conv3_block2_0_bn/FusedBatchNormV3", "op": "Add", "input": ["StatefulPartitionedCall/sequential_3/densenet121/conv3_block2_0_bn/FusedBatchNormV3/Mul", "StatefulPartitionedCall/sequential_3/densenet121/conv3_block2_0_bn/FusedBatchNormV3/Offset"], "attr": {"T": {"type": "DT_FLOAT"}}}, {"name": "StatefulPartitionedCall/sequential_3/densenet121/conv3_block2_0_relu/Relu", "op": "Relu", "input": ["StatefulPartitionedCall/sequential_3/densenet121/conv3_block2_0_bn/FusedBatchNormV3"], "attr": {"T": {"type": "DT_FLOAT"}}}, {"name": "StatefulPartitionedCall/sequential_3/densenet121/conv3_block2_1_relu/Relu", "op": "_FusedConv2D", "input": ["StatefulPartitionedCall/sequential_3/densenet121/conv3_block2_0_relu/Relu", "StatefulPartitionedCall/sequential_3/densenet121/conv3_block2_1_conv/Conv2D_weights", "StatefulPartitionedCall/sequential_3/densenet121/conv3_block2_1_conv/Conv2D_bn_offset"], "device": "/device:CPU:0", "attr": {"strides": {"list": {"i": ["1", "1", "1", "1"]}}, "dilations": {"list": {"i": ["1", "1", "1", "1"]}}, "use_cudnn_on_gpu": {"b": true}, "padding": {"s": "VkFMSUQ="}, "fused_ops": {"list": {"s": ["Qmlhc0FkZA==", "UmVsdQ=="]}}, "epsilon": {"f": 0.0}, "explicit_paddings": {"list": {}}, "T": {"type": "DT_FLOAT"}, "num_args": {"i": "1"}, "data_format": {"s": "TkhXQw=="}}}, {"name": "StatefulPartitionedCall/sequential_3/densenet121/conv3_block2_2_conv/Conv2D", "op": "Conv2D", "input": ["StatefulPartitionedCall/sequential_3/densenet121/conv3_block2_1_relu/Relu", "StatefulPartitionedCall/sequential_3/densenet121/conv3_block2_2_conv/Conv2D/ReadVariableOp"], "device": "/device:CPU:0", "attr": {"padding": {"s": "U0FNRQ=="}, "strides": {"list": {"i": ["1", "1", "1", "1"]}}, "T": {"type": "DT_FLOAT"}, "explicit_paddings": {"list": {}}, "data_format": {"s": "TkhXQw=="}, "use_cudnn_on_gpu": {"b": true}, "dilations": {"list": {"i": ["1", "1", "1", "1"]}}}}, {"name": "StatefulPartitionedCall/sequential_3/densenet121/conv3_block2_concat/concat", "op": "ConcatV2", "input": ["StatefulPartitionedCall/sequential_3/densenet121/conv3_block1_concat/concat", "StatefulPartitionedCall/sequential_3/densenet121/conv3_block2_2_conv/Conv2D", "StatefulPartitionedCall/sequential_3/densenet121/conv3_block2_concat/concat/axis"], "attr": {"N": {"i": "2"}, "Tidx": {"type": "DT_INT32"}, "T": {"type": "DT_FLOAT"}}}, {"name": "StatefulPartitionedCall/sequential_3/densenet121/conv3_block3_0_bn/FusedBatchNormV3/Mul", "op": "Mul", "input": ["StatefulPartitionedCall/sequential_3/densenet121/conv3_block2_concat/concat", "StatefulPartitionedCall/sequential_3/densenet121/conv3_block3_0_bn/FusedBatchNormV3/Scaled"], "attr": {"T": {"type": "DT_FLOAT"}}}, {"name": "StatefulPartitionedCall/sequential_3/densenet121/conv3_block3_0_bn/FusedBatchNormV3", "op": "Add", "input": ["StatefulPartitionedCall/sequential_3/densenet121/conv3_block3_0_bn/FusedBatchNormV3/Mul", "StatefulPartitionedCall/sequential_3/densenet121/conv3_block3_0_bn/FusedBatchNormV3/Offset"], "attr": {"T": {"type": "DT_FLOAT"}}}, {"name": "StatefulPartitionedCall/sequential_3/densenet121/conv3_block3_0_relu/Relu", "op": "Relu", "input": ["StatefulPartitionedCall/sequential_3/densenet121/conv3_block3_0_bn/FusedBatchNormV3"], "attr": {"T": {"type": "DT_FLOAT"}}}, {"name": "StatefulPartitionedCall/sequential_3/densenet121/conv3_block3_1_relu/Relu", "op": "_FusedConv2D", "input": ["StatefulPartitionedCall/sequential_3/densenet121/conv3_block3_0_relu/Relu", "StatefulPartitionedCall/sequential_3/densenet121/conv3_block3_1_conv/Conv2D_weights", "StatefulPartitionedCall/sequential_3/densenet121/conv3_block3_1_conv/Conv2D_bn_offset"], "device": "/device:CPU:0", "attr": {"padding": {"s": "VkFMSUQ="}, "explicit_paddings": {"list": {}}, "fused_ops": {"list": {"s": ["Qmlhc0FkZA==", "UmVsdQ=="]}}, "dilations": {"list": {"i": ["1", "1", "1", "1"]}}, "data_format": {"s": "TkhXQw=="}, "use_cudnn_on_gpu": {"b": true}, "num_args": {"i": "1"}, "T": {"type": "DT_FLOAT"}, "strides": {"list": {"i": ["1", "1", "1", "1"]}}, "epsilon": {"f": 0.0}}}, {"name": "StatefulPartitionedCall/sequential_3/densenet121/conv3_block3_2_conv/Conv2D", "op": "Conv2D", "input": ["StatefulPartitionedCall/sequential_3/densenet121/conv3_block3_1_relu/Relu", "StatefulPartitionedCall/sequential_3/densenet121/conv3_block3_2_conv/Conv2D/ReadVariableOp"], "device": "/device:CPU:0", "attr": {"dilations": {"list": {"i": ["1", "1", "1", "1"]}}, "explicit_paddings": {"list": {}}, "strides": {"list": {"i": ["1", "1", "1", "1"]}}, "use_cudnn_on_gpu": {"b": true}, "data_format": {"s": "TkhXQw=="}, "padding": {"s": "U0FNRQ=="}, "T": {"type": "DT_FLOAT"}}}, {"name": "StatefulPartitionedCall/sequential_3/densenet121/conv3_block3_concat/concat", "op": "ConcatV2", "input": ["StatefulPartitionedCall/sequential_3/densenet121/conv3_block2_concat/concat", "StatefulPartitionedCall/sequential_3/densenet121/conv3_block3_2_conv/Conv2D", "StatefulPartitionedCall/sequential_3/densenet121/conv3_block3_concat/concat/axis"], "attr": {"T": {"type": "DT_FLOAT"}, "N": {"i": "2"}, "Tidx": {"type": "DT_INT32"}}}, {"name": "StatefulPartitionedCall/sequential_3/densenet121/conv3_block4_0_bn/FusedBatchNormV3/Mul", "op": "Mul", "input": ["StatefulPartitionedCall/sequential_3/densenet121/conv3_block3_concat/concat", "StatefulPartitionedCall/sequential_3/densenet121/conv3_block4_0_bn/FusedBatchNormV3/Scaled"], "attr": {"T": {"type": "DT_FLOAT"}}}, {"name": "StatefulPartitionedCall/sequential_3/densenet121/conv3_block4_0_bn/FusedBatchNormV3", "op": "Add", "input": ["StatefulPartitionedCall/sequential_3/densenet121/conv3_block4_0_bn/FusedBatchNormV3/Mul", "StatefulPartitionedCall/sequential_3/densenet121/conv3_block4_0_bn/FusedBatchNormV3/Offset"], "attr": {"T": {"type": "DT_FLOAT"}}}, {"name": "StatefulPartitionedCall/sequential_3/densenet121/conv3_block4_0_relu/Relu", "op": "Relu", "input": ["StatefulPartitionedCall/sequential_3/densenet121/conv3_block4_0_bn/FusedBatchNormV3"], "attr": {"T": {"type": "DT_FLOAT"}}}, {"name": "StatefulPartitionedCall/sequential_3/densenet121/conv3_block4_1_relu/Relu", "op": "_FusedConv2D", "input": ["StatefulPartitionedCall/sequential_3/densenet121/conv3_block4_0_relu/Relu", "StatefulPartitionedCall/sequential_3/densenet121/conv3_block4_1_conv/Conv2D_weights", "StatefulPartitionedCall/sequential_3/densenet121/conv3_block4_1_conv/Conv2D_bn_offset"], "device": "/device:CPU:0", "attr": {"data_format": {"s": "TkhXQw=="}, "explicit_paddings": {"list": {}}, "dilations": {"list": {"i": ["1", "1", "1", "1"]}}, "use_cudnn_on_gpu": {"b": true}, "strides": {"list": {"i": ["1", "1", "1", "1"]}}, "T": {"type": "DT_FLOAT"}, "padding": {"s": "VkFMSUQ="}, "epsilon": {"f": 0.0}, "num_args": {"i": "1"}, "fused_ops": {"list": {"s": ["Qmlhc0FkZA==", "UmVsdQ=="]}}}}, {"name": "StatefulPartitionedCall/sequential_3/densenet121/conv3_block4_2_conv/Conv2D", "op": "Conv2D", "input": ["StatefulPartitionedCall/sequential_3/densenet121/conv3_block4_1_relu/Relu", "StatefulPartitionedCall/sequential_3/densenet121/conv3_block4_2_conv/Conv2D/ReadVariableOp"], "device": "/device:CPU:0", "attr": {"padding": {"s": "U0FNRQ=="}, "T": {"type": "DT_FLOAT"}, "dilations": {"list": {"i": ["1", "1", "1", "1"]}}, "strides": {"list": {"i": ["1", "1", "1", "1"]}}, "use_cudnn_on_gpu": {"b": true}, "data_format": {"s": "TkhXQw=="}, "explicit_paddings": {"list": {}}}}, {"name": "StatefulPartitionedCall/sequential_3/densenet121/conv3_block4_concat/concat", "op": "ConcatV2", "input": ["StatefulPartitionedCall/sequential_3/densenet121/conv3_block3_concat/concat", "StatefulPartitionedCall/sequential_3/densenet121/conv3_block4_2_conv/Conv2D", "StatefulPartitionedCall/sequential_3/densenet121/conv3_block4_concat/concat/axis"], "attr": {"N": {"i": "2"}, "Tidx": {"type": "DT_INT32"}, "T": {"type": "DT_FLOAT"}}}, {"name": "StatefulPartitionedCall/sequential_3/densenet121/conv3_block5_0_bn/FusedBatchNormV3/Mul", "op": "Mul", "input": ["StatefulPartitionedCall/sequential_3/densenet121/conv3_block4_concat/concat", "StatefulPartitionedCall/sequential_3/densenet121/conv3_block5_0_bn/FusedBatchNormV3/Scaled"], "attr": {"T": {"type": "DT_FLOAT"}}}, {"name": "StatefulPartitionedCall/sequential_3/densenet121/conv3_block5_0_bn/FusedBatchNormV3", "op": "Add", "input": ["StatefulPartitionedCall/sequential_3/densenet121/conv3_block5_0_bn/FusedBatchNormV3/Mul", "StatefulPartitionedCall/sequential_3/densenet121/conv3_block5_0_bn/FusedBatchNormV3/Offset"], "attr": {"T": {"type": "DT_FLOAT"}}}, {"name": "StatefulPartitionedCall/sequential_3/densenet121/conv3_block5_0_relu/Relu", "op": "Relu", "input": ["StatefulPartitionedCall/sequential_3/densenet121/conv3_block5_0_bn/FusedBatchNormV3"], "attr": {"T": {"type": "DT_FLOAT"}}}, {"name": "StatefulPartitionedCall/sequential_3/densenet121/conv3_block5_1_relu/Relu", "op": "_FusedConv2D", "input": ["StatefulPartitionedCall/sequential_3/densenet121/conv3_block5_0_relu/Relu", "StatefulPartitionedCall/sequential_3/densenet121/conv3_block5_1_conv/Conv2D_weights", "StatefulPartitionedCall/sequential_3/densenet121/conv3_block5_1_conv/Conv2D_bn_offset"], "device": "/device:CPU:0", "attr": {"padding": {"s": "VkFMSUQ="}, "dilations": {"list": {"i": ["1", "1", "1", "1"]}}, "strides": {"list": {"i": ["1", "1", "1", "1"]}}, "use_cudnn_on_gpu": {"b": true}, "T": {"type": "DT_FLOAT"}, "data_format": {"s": "TkhXQw=="}, "fused_ops": {"list": {"s": ["Qmlhc0FkZA==", "UmVsdQ=="]}}, "num_args": {"i": "1"}, "epsilon": {"f": 0.0}, "explicit_paddings": {"list": {}}}}, {"name": "StatefulPartitionedCall/sequential_3/densenet121/conv3_block5_2_conv/Conv2D", "op": "Conv2D", "input": ["StatefulPartitionedCall/sequential_3/densenet121/conv3_block5_1_relu/Relu", "StatefulPartitionedCall/sequential_3/densenet121/conv3_block5_2_conv/Conv2D/ReadVariableOp"], "device": "/device:CPU:0", "attr": {"use_cudnn_on_gpu": {"b": true}, "dilations": {"list": {"i": ["1", "1", "1", "1"]}}, "strides": {"list": {"i": ["1", "1", "1", "1"]}}, "T": {"type": "DT_FLOAT"}, "data_format": {"s": "TkhXQw=="}, "padding": {"s": "U0FNRQ=="}, "explicit_paddings": {"list": {}}}}, {"name": "StatefulPartitionedCall/sequential_3/densenet121/conv3_block5_concat/concat", "op": "ConcatV2", "input": ["StatefulPartitionedCall/sequential_3/densenet121/conv3_block4_concat/concat", "StatefulPartitionedCall/sequential_3/densenet121/conv3_block5_2_conv/Conv2D", "StatefulPartitionedCall/sequential_3/densenet121/conv3_block5_concat/concat/axis"], "attr": {"T": {"type": "DT_FLOAT"}, "Tidx": {"type": "DT_INT32"}, "N": {"i": "2"}}}, {"name": "StatefulPartitionedCall/sequential_3/densenet121/conv3_block6_0_bn/FusedBatchNormV3/Mul", "op": "Mul", "input": ["StatefulPartitionedCall/sequential_3/densenet121/conv3_block5_concat/concat", "StatefulPartitionedCall/sequential_3/densenet121/conv3_block6_0_bn/FusedBatchNormV3/Scaled"], "attr": {"T": {"type": "DT_FLOAT"}}}, {"name": "StatefulPartitionedCall/sequential_3/densenet121/conv3_block6_0_bn/FusedBatchNormV3", "op": "Add", "input": ["StatefulPartitionedCall/sequential_3/densenet121/conv3_block6_0_bn/FusedBatchNormV3/Mul", "StatefulPartitionedCall/sequential_3/densenet121/conv3_block6_0_bn/FusedBatchNormV3/Offset"], "attr": {"T": {"type": "DT_FLOAT"}}}, {"name": "StatefulPartitionedCall/sequential_3/densenet121/conv3_block6_0_relu/Relu", "op": "Relu", "input": ["StatefulPartitionedCall/sequential_3/densenet121/conv3_block6_0_bn/FusedBatchNormV3"], "attr": {"T": {"type": "DT_FLOAT"}}}, {"name": "StatefulPartitionedCall/sequential_3/densenet121/conv3_block6_1_relu/Relu", "op": "_FusedConv2D", "input": ["StatefulPartitionedCall/sequential_3/densenet121/conv3_block6_0_relu/Relu", "StatefulPartitionedCall/sequential_3/densenet121/conv3_block6_1_conv/Conv2D_weights", "StatefulPartitionedCall/sequential_3/densenet121/conv3_block6_1_conv/Conv2D_bn_offset"], "device": "/device:CPU:0", "attr": {"fused_ops": {"list": {"s": ["Qmlhc0FkZA==", "UmVsdQ=="]}}, "strides": {"list": {"i": ["1", "1", "1", "1"]}}, "T": {"type": "DT_FLOAT"}, "num_args": {"i": "1"}, "explicit_paddings": {"list": {}}, "use_cudnn_on_gpu": {"b": true}, "data_format": {"s": "TkhXQw=="}, "epsilon": {"f": 0.0}, "padding": {"s": "VkFMSUQ="}, "dilations": {"list": {"i": ["1", "1", "1", "1"]}}}}, {"name": "StatefulPartitionedCall/sequential_3/densenet121/conv3_block6_2_conv/Conv2D", "op": "Conv2D", "input": ["StatefulPartitionedCall/sequential_3/densenet121/conv3_block6_1_relu/Relu", "StatefulPartitionedCall/sequential_3/densenet121/conv3_block6_2_conv/Conv2D/ReadVariableOp"], "device": "/device:CPU:0", "attr": {"explicit_paddings": {"list": {}}, "data_format": {"s": "TkhXQw=="}, "strides": {"list": {"i": ["1", "1", "1", "1"]}}, "use_cudnn_on_gpu": {"b": true}, "padding": {"s": "U0FNRQ=="}, "dilations": {"list": {"i": ["1", "1", "1", "1"]}}, "T": {"type": "DT_FLOAT"}}}, {"name": "StatefulPartitionedCall/sequential_3/densenet121/conv3_block6_concat/concat", "op": "ConcatV2", "input": ["StatefulPartitionedCall/sequential_3/densenet121/conv3_block5_concat/concat", "StatefulPartitionedCall/sequential_3/densenet121/conv3_block6_2_conv/Conv2D", "StatefulPartitionedCall/sequential_3/densenet121/conv3_block6_concat/concat/axis"], "attr": {"Tidx": {"type": "DT_INT32"}, "T": {"type": "DT_FLOAT"}, "N": {"i": "2"}}}, {"name": "StatefulPartitionedCall/sequential_3/densenet121/conv3_block7_0_bn/FusedBatchNormV3/Mul", "op": "Mul", "input": ["StatefulPartitionedCall/sequential_3/densenet121/conv3_block6_concat/concat", "StatefulPartitionedCall/sequential_3/densenet121/conv3_block7_0_bn/FusedBatchNormV3/Scaled"], "attr": {"T": {"type": "DT_FLOAT"}}}, {"name": "StatefulPartitionedCall/sequential_3/densenet121/conv3_block7_0_bn/FusedBatchNormV3", "op": "Add", "input": ["StatefulPartitionedCall/sequential_3/densenet121/conv3_block7_0_bn/FusedBatchNormV3/Mul", "StatefulPartitionedCall/sequential_3/densenet121/conv3_block7_0_bn/FusedBatchNormV3/Offset"], "attr": {"T": {"type": "DT_FLOAT"}}}, {"name": "StatefulPartitionedCall/sequential_3/densenet121/conv3_block7_0_relu/Relu", "op": "Relu", "input": ["StatefulPartitionedCall/sequential_3/densenet121/conv3_block7_0_bn/FusedBatchNormV3"], "attr": {"T": {"type": "DT_FLOAT"}}}, {"name": "StatefulPartitionedCall/sequential_3/densenet121/conv3_block7_1_relu/Relu", "op": "_FusedConv2D", "input": ["StatefulPartitionedCall/sequential_3/densenet121/conv3_block7_0_relu/Relu", "StatefulPartitionedCall/sequential_3/densenet121/conv3_block7_1_conv/Conv2D_weights", "StatefulPartitionedCall/sequential_3/densenet121/conv3_block7_1_conv/Conv2D_bn_offset"], "device": "/device:CPU:0", "attr": {"strides": {"list": {"i": ["1", "1", "1", "1"]}}, "explicit_paddings": {"list": {}}, "epsilon": {"f": 0.0}, "fused_ops": {"list": {"s": ["Qmlhc0FkZA==", "UmVsdQ=="]}}, "num_args": {"i": "1"}, "use_cudnn_on_gpu": {"b": true}, "T": {"type": "DT_FLOAT"}, "data_format": {"s": "TkhXQw=="}, "padding": {"s": "VkFMSUQ="}, "dilations": {"list": {"i": ["1", "1", "1", "1"]}}}}, {"name": "StatefulPartitionedCall/sequential_3/densenet121/conv3_block7_2_conv/Conv2D", "op": "Conv2D", "input": ["StatefulPartitionedCall/sequential_3/densenet121/conv3_block7_1_relu/Relu", "StatefulPartitionedCall/sequential_3/densenet121/conv3_block7_2_conv/Conv2D/ReadVariableOp"], "device": "/device:CPU:0", "attr": {"data_format": {"s": "TkhXQw=="}, "use_cudnn_on_gpu": {"b": true}, "padding": {"s": "U0FNRQ=="}, "T": {"type": "DT_FLOAT"}, "strides": {"list": {"i": ["1", "1", "1", "1"]}}, "dilations": {"list": {"i": ["1", "1", "1", "1"]}}, "explicit_paddings": {"list": {}}}}, {"name": "StatefulPartitionedCall/sequential_3/densenet121/conv3_block7_concat/concat", "op": "ConcatV2", "input": ["StatefulPartitionedCall/sequential_3/densenet121/conv3_block6_concat/concat", "StatefulPartitionedCall/sequential_3/densenet121/conv3_block7_2_conv/Conv2D", "StatefulPartitionedCall/sequential_3/densenet121/conv3_block7_concat/concat/axis"], "attr": {"Tidx": {"type": "DT_INT32"}, "N": {"i": "2"}, "T": {"type": "DT_FLOAT"}}}, {"name": "StatefulPartitionedCall/sequential_3/densenet121/conv3_block8_0_bn/FusedBatchNormV3/Mul", "op": "Mul", "input": ["StatefulPartitionedCall/sequential_3/densenet121/conv3_block7_concat/concat", "StatefulPartitionedCall/sequential_3/densenet121/conv3_block8_0_bn/FusedBatchNormV3/Scaled"], "attr": {"T": {"type": "DT_FLOAT"}}}, {"name": "StatefulPartitionedCall/sequential_3/densenet121/conv3_block8_0_bn/FusedBatchNormV3", "op": "Add", "input": ["StatefulPartitionedCall/sequential_3/densenet121/conv3_block8_0_bn/FusedBatchNormV3/Mul", "StatefulPartitionedCall/sequential_3/densenet121/conv3_block8_0_bn/FusedBatchNormV3/Offset"], "attr": {"T": {"type": "DT_FLOAT"}}}, {"name": "StatefulPartitionedCall/sequential_3/densenet121/conv3_block8_0_relu/Relu", "op": "Relu", "input": ["StatefulPartitionedCall/sequential_3/densenet121/conv3_block8_0_bn/FusedBatchNormV3"], "attr": {"T": {"type": "DT_FLOAT"}}}, {"name": "StatefulPartitionedCall/sequential_3/densenet121/conv3_block8_1_relu/Relu", "op": "_FusedConv2D", "input": ["StatefulPartitionedCall/sequential_3/densenet121/conv3_block8_0_relu/Relu", "StatefulPartitionedCall/sequential_3/densenet121/conv3_block8_1_conv/Conv2D_weights", "StatefulPartitionedCall/sequential_3/densenet121/conv3_block8_1_conv/Conv2D_bn_offset"], "device": "/device:CPU:0", "attr": {"T": {"type": "DT_FLOAT"}, "padding": {"s": "VkFMSUQ="}, "use_cudnn_on_gpu": {"b": true}, "explicit_paddings": {"list": {}}, "num_args": {"i": "1"}, "epsilon": {"f": 0.0}, "data_format": {"s": "TkhXQw=="}, "strides": {"list": {"i": ["1", "1", "1", "1"]}}, "fused_ops": {"list": {"s": ["Qmlhc0FkZA==", "UmVsdQ=="]}}, "dilations": {"list": {"i": ["1", "1", "1", "1"]}}}}, {"name": "StatefulPartitionedCall/sequential_3/densenet121/conv3_block8_2_conv/Conv2D", "op": "Conv2D", "input": ["StatefulPartitionedCall/sequential_3/densenet121/conv3_block8_1_relu/Relu", "StatefulPartitionedCall/sequential_3/densenet121/conv3_block8_2_conv/Conv2D/ReadVariableOp"], "device": "/device:CPU:0", "attr": {"padding": {"s": "U0FNRQ=="}, "strides": {"list": {"i": ["1", "1", "1", "1"]}}, "dilations": {"list": {"i": ["1", "1", "1", "1"]}}, "use_cudnn_on_gpu": {"b": true}, "T": {"type": "DT_FLOAT"}, "data_format": {"s": "TkhXQw=="}, "explicit_paddings": {"list": {}}}}, {"name": "StatefulPartitionedCall/sequential_3/densenet121/conv3_block8_concat/concat", "op": "ConcatV2", "input": ["StatefulPartitionedCall/sequential_3/densenet121/conv3_block7_concat/concat", "StatefulPartitionedCall/sequential_3/densenet121/conv3_block8_2_conv/Conv2D", "StatefulPartitionedCall/sequential_3/densenet121/conv3_block8_concat/concat/axis"], "attr": {"N": {"i": "2"}, "Tidx": {"type": "DT_INT32"}, "T": {"type": "DT_FLOAT"}}}, {"name": "StatefulPartitionedCall/sequential_3/densenet121/conv3_block9_0_bn/FusedBatchNormV3/Mul", "op": "Mul", "input": ["StatefulPartitionedCall/sequential_3/densenet121/conv3_block8_concat/concat", "StatefulPartitionedCall/sequential_3/densenet121/conv3_block9_0_bn/FusedBatchNormV3/Scaled"], "attr": {"T": {"type": "DT_FLOAT"}}}, {"name": "StatefulPartitionedCall/sequential_3/densenet121/conv3_block9_0_bn/FusedBatchNormV3", "op": "Add", "input": ["StatefulPartitionedCall/sequential_3/densenet121/conv3_block9_0_bn/FusedBatchNormV3/Mul", "StatefulPartitionedCall/sequential_3/densenet121/conv3_block9_0_bn/FusedBatchNormV3/Offset"], "attr": {"T": {"type": "DT_FLOAT"}}}, {"name": "StatefulPartitionedCall/sequential_3/densenet121/conv3_block9_0_relu/Relu", "op": "Relu", "input": ["StatefulPartitionedCall/sequential_3/densenet121/conv3_block9_0_bn/FusedBatchNormV3"], "attr": {"T": {"type": "DT_FLOAT"}}}, {"name": "StatefulPartitionedCall/sequential_3/densenet121/conv3_block9_1_relu/Relu", "op": "_FusedConv2D", "input": ["StatefulPartitionedCall/sequential_3/densenet121/conv3_block9_0_relu/Relu", "StatefulPartitionedCall/sequential_3/densenet121/conv3_block9_1_conv/Conv2D_weights", "StatefulPartitionedCall/sequential_3/densenet121/conv3_block9_1_conv/Conv2D_bn_offset"], "device": "/device:CPU:0", "attr": {"data_format": {"s": "TkhXQw=="}, "explicit_paddings": {"list": {}}, "dilations": {"list": {"i": ["1", "1", "1", "1"]}}, "strides": {"list": {"i": ["1", "1", "1", "1"]}}, "epsilon": {"f": 0.0}, "fused_ops": {"list": {"s": ["Qmlhc0FkZA==", "UmVsdQ=="]}}, "use_cudnn_on_gpu": {"b": true}, "T": {"type": "DT_FLOAT"}, "num_args": {"i": "1"}, "padding": {"s": "VkFMSUQ="}}}, {"name": "StatefulPartitionedCall/sequential_3/densenet121/conv3_block9_2_conv/Conv2D", "op": "Conv2D", "input": ["StatefulPartitionedCall/sequential_3/densenet121/conv3_block9_1_relu/Relu", "StatefulPartitionedCall/sequential_3/densenet121/conv3_block9_2_conv/Conv2D/ReadVariableOp"], "device": "/device:CPU:0", "attr": {"data_format": {"s": "TkhXQw=="}, "strides": {"list": {"i": ["1", "1", "1", "1"]}}, "T": {"type": "DT_FLOAT"}, "explicit_paddings": {"list": {}}, "use_cudnn_on_gpu": {"b": true}, "padding": {"s": "U0FNRQ=="}, "dilations": {"list": {"i": ["1", "1", "1", "1"]}}}}, {"name": "StatefulPartitionedCall/sequential_3/densenet121/conv3_block9_concat/concat", "op": "ConcatV2", "input": ["StatefulPartitionedCall/sequential_3/densenet121/conv3_block8_concat/concat", "StatefulPartitionedCall/sequential_3/densenet121/conv3_block9_2_conv/Conv2D", "StatefulPartitionedCall/sequential_3/densenet121/conv3_block9_concat/concat/axis"], "attr": {"Tidx": {"type": "DT_INT32"}, "T": {"type": "DT_FLOAT"}, "N": {"i": "2"}}}, {"name": "StatefulPartitionedCall/sequential_3/densenet121/conv3_block10_0_bn/FusedBatchNormV3/Mul", "op": "Mul", "input": ["StatefulPartitionedCall/sequential_3/densenet121/conv3_block9_concat/concat", "StatefulPartitionedCall/sequential_3/densenet121/conv3_block10_0_bn/FusedBatchNormV3/Scaled"], "attr": {"T": {"type": "DT_FLOAT"}}}, {"name": "StatefulPartitionedCall/sequential_3/densenet121/conv3_block10_0_bn/FusedBatchNormV3", "op": "Add", "input": ["StatefulPartitionedCall/sequential_3/densenet121/conv3_block10_0_bn/FusedBatchNormV3/Mul", "StatefulPartitionedCall/sequential_3/densenet121/conv3_block10_0_bn/FusedBatchNormV3/Offset"], "attr": {"T": {"type": "DT_FLOAT"}}}, {"name": "StatefulPartitionedCall/sequential_3/densenet121/conv3_block10_0_relu/Relu", "op": "Relu", "input": ["StatefulPartitionedCall/sequential_3/densenet121/conv3_block10_0_bn/FusedBatchNormV3"], "attr": {"T": {"type": "DT_FLOAT"}}}, {"name": "StatefulPartitionedCall/sequential_3/densenet121/conv3_block10_1_relu/Relu", "op": "_FusedConv2D", "input": ["StatefulPartitionedCall/sequential_3/densenet121/conv3_block10_0_relu/Relu", "StatefulPartitionedCall/sequential_3/densenet121/conv3_block10_1_conv/Conv2D_weights", "StatefulPartitionedCall/sequential_3/densenet121/conv3_block10_1_conv/Conv2D_bn_offset"], "device": "/device:CPU:0", "attr": {"dilations": {"list": {"i": ["1", "1", "1", "1"]}}, "epsilon": {"f": 0.0}, "explicit_paddings": {"list": {}}, "T": {"type": "DT_FLOAT"}, "fused_ops": {"list": {"s": ["Qmlhc0FkZA==", "UmVsdQ=="]}}, "padding": {"s": "VkFMSUQ="}, "num_args": {"i": "1"}, "data_format": {"s": "TkhXQw=="}, "use_cudnn_on_gpu": {"b": true}, "strides": {"list": {"i": ["1", "1", "1", "1"]}}}}, {"name": "StatefulPartitionedCall/sequential_3/densenet121/conv3_block10_2_conv/Conv2D", "op": "Conv2D", "input": ["StatefulPartitionedCall/sequential_3/densenet121/conv3_block10_1_relu/Relu", "StatefulPartitionedCall/sequential_3/densenet121/conv3_block10_2_conv/Conv2D/ReadVariableOp"], "device": "/device:CPU:0", "attr": {"data_format": {"s": "TkhXQw=="}, "padding": {"s": "U0FNRQ=="}, "use_cudnn_on_gpu": {"b": true}, "T": {"type": "DT_FLOAT"}, "explicit_paddings": {"list": {}}, "strides": {"list": {"i": ["1", "1", "1", "1"]}}, "dilations": {"list": {"i": ["1", "1", "1", "1"]}}}}, {"name": "StatefulPartitionedCall/sequential_3/densenet121/conv3_block10_concat/concat", "op": "ConcatV2", "input": ["StatefulPartitionedCall/sequential_3/densenet121/conv3_block9_concat/concat", "StatefulPartitionedCall/sequential_3/densenet121/conv3_block10_2_conv/Conv2D", "StatefulPartitionedCall/sequential_3/densenet121/conv3_block10_concat/concat/axis"], "attr": {"N": {"i": "2"}, "Tidx": {"type": "DT_INT32"}, "T": {"type": "DT_FLOAT"}}}, {"name": "StatefulPartitionedCall/sequential_3/densenet121/conv3_block11_0_bn/FusedBatchNormV3/Mul", "op": "Mul", "input": ["StatefulPartitionedCall/sequential_3/densenet121/conv3_block10_concat/concat", "StatefulPartitionedCall/sequential_3/densenet121/conv3_block11_0_bn/FusedBatchNormV3/Scaled"], "attr": {"T": {"type": "DT_FLOAT"}}}, {"name": "StatefulPartitionedCall/sequential_3/densenet121/conv3_block11_0_bn/FusedBatchNormV3", "op": "Add", "input": ["StatefulPartitionedCall/sequential_3/densenet121/conv3_block11_0_bn/FusedBatchNormV3/Mul", "StatefulPartitionedCall/sequential_3/densenet121/conv3_block11_0_bn/FusedBatchNormV3/Offset"], "attr": {"T": {"type": "DT_FLOAT"}}}, {"name": "StatefulPartitionedCall/sequential_3/densenet121/conv3_block11_0_relu/Relu", "op": "Relu", "input": ["StatefulPartitionedCall/sequential_3/densenet121/conv3_block11_0_bn/FusedBatchNormV3"], "attr": {"T": {"type": "DT_FLOAT"}}}, {"name": "StatefulPartitionedCall/sequential_3/densenet121/conv3_block11_1_relu/Relu", "op": "_FusedConv2D", "input": ["StatefulPartitionedCall/sequential_3/densenet121/conv3_block11_0_relu/Relu", "StatefulPartitionedCall/sequential_3/densenet121/conv3_block11_1_conv/Conv2D_weights", "StatefulPartitionedCall/sequential_3/densenet121/conv3_block11_1_conv/Conv2D_bn_offset"], "device": "/device:CPU:0", "attr": {"fused_ops": {"list": {"s": ["Qmlhc0FkZA==", "UmVsdQ=="]}}, "use_cudnn_on_gpu": {"b": true}, "padding": {"s": "VkFMSUQ="}, "num_args": {"i": "1"}, "explicit_paddings": {"list": {}}, "epsilon": {"f": 0.0}, "data_format": {"s": "TkhXQw=="}, "dilations": {"list": {"i": ["1", "1", "1", "1"]}}, "strides": {"list": {"i": ["1", "1", "1", "1"]}}, "T": {"type": "DT_FLOAT"}}}, {"name": "StatefulPartitionedCall/sequential_3/densenet121/conv3_block11_2_conv/Conv2D", "op": "Conv2D", "input": ["StatefulPartitionedCall/sequential_3/densenet121/conv3_block11_1_relu/Relu", "StatefulPartitionedCall/sequential_3/densenet121/conv3_block11_2_conv/Conv2D/ReadVariableOp"], "device": "/device:CPU:0", "attr": {"data_format": {"s": "TkhXQw=="}, "explicit_paddings": {"list": {}}, "T": {"type": "DT_FLOAT"}, "strides": {"list": {"i": ["1", "1", "1", "1"]}}, "use_cudnn_on_gpu": {"b": true}, "dilations": {"list": {"i": ["1", "1", "1", "1"]}}, "padding": {"s": "U0FNRQ=="}}}, {"name": "StatefulPartitionedCall/sequential_3/densenet121/conv3_block11_concat/concat", "op": "ConcatV2", "input": ["StatefulPartitionedCall/sequential_3/densenet121/conv3_block10_concat/concat", "StatefulPartitionedCall/sequential_3/densenet121/conv3_block11_2_conv/Conv2D", "StatefulPartitionedCall/sequential_3/densenet121/conv3_block11_concat/concat/axis"], "attr": {"Tidx": {"type": "DT_INT32"}, "N": {"i": "2"}, "T": {"type": "DT_FLOAT"}}}, {"name": "StatefulPartitionedCall/sequential_3/densenet121/conv3_block12_0_bn/FusedBatchNormV3/Mul", "op": "Mul", "input": ["StatefulPartitionedCall/sequential_3/densenet121/conv3_block11_concat/concat", "StatefulPartitionedCall/sequential_3/densenet121/conv3_block12_0_bn/FusedBatchNormV3/Scaled"], "attr": {"T": {"type": "DT_FLOAT"}}}, {"name": "StatefulPartitionedCall/sequential_3/densenet121/conv3_block12_0_bn/FusedBatchNormV3", "op": "Add", "input": ["StatefulPartitionedCall/sequential_3/densenet121/conv3_block12_0_bn/FusedBatchNormV3/Mul", "StatefulPartitionedCall/sequential_3/densenet121/conv3_block12_0_bn/FusedBatchNormV3/Offset"], "attr": {"T": {"type": "DT_FLOAT"}}}, {"name": "StatefulPartitionedCall/sequential_3/densenet121/conv3_block12_0_relu/Relu", "op": "Relu", "input": ["StatefulPartitionedCall/sequential_3/densenet121/conv3_block12_0_bn/FusedBatchNormV3"], "attr": {"T": {"type": "DT_FLOAT"}}}, {"name": "StatefulPartitionedCall/sequential_3/densenet121/conv3_block12_1_relu/Relu", "op": "_FusedConv2D", "input": ["StatefulPartitionedCall/sequential_3/densenet121/conv3_block12_0_relu/Relu", "StatefulPartitionedCall/sequential_3/densenet121/conv3_block12_1_conv/Conv2D_weights", "StatefulPartitionedCall/sequential_3/densenet121/conv3_block12_1_conv/Conv2D_bn_offset"], "device": "/device:CPU:0", "attr": {"epsilon": {"f": 0.0}, "dilations": {"list": {"i": ["1", "1", "1", "1"]}}, "padding": {"s": "VkFMSUQ="}, "fused_ops": {"list": {"s": ["Qmlhc0FkZA==", "UmVsdQ=="]}}, "T": {"type": "DT_FLOAT"}, "strides": {"list": {"i": ["1", "1", "1", "1"]}}, "data_format": {"s": "TkhXQw=="}, "num_args": {"i": "1"}, "use_cudnn_on_gpu": {"b": true}, "explicit_paddings": {"list": {}}}}, {"name": "StatefulPartitionedCall/sequential_3/densenet121/conv3_block12_2_conv/Conv2D", "op": "Conv2D", "input": ["StatefulPartitionedCall/sequential_3/densenet121/conv3_block12_1_relu/Relu", "StatefulPartitionedCall/sequential_3/densenet121/conv3_block12_2_conv/Conv2D/ReadVariableOp"], "device": "/device:CPU:0", "attr": {"dilations": {"list": {"i": ["1", "1", "1", "1"]}}, "data_format": {"s": "TkhXQw=="}, "T": {"type": "DT_FLOAT"}, "use_cudnn_on_gpu": {"b": true}, "explicit_paddings": {"list": {}}, "strides": {"list": {"i": ["1", "1", "1", "1"]}}, "padding": {"s": "U0FNRQ=="}}}, {"name": "StatefulPartitionedCall/sequential_3/densenet121/conv3_block12_concat/concat", "op": "ConcatV2", "input": ["StatefulPartitionedCall/sequential_3/densenet121/conv3_block11_concat/concat", "StatefulPartitionedCall/sequential_3/densenet121/conv3_block12_2_conv/Conv2D", "StatefulPartitionedCall/sequential_3/densenet121/conv3_block12_concat/concat/axis"], "attr": {"N": {"i": "2"}, "T": {"type": "DT_FLOAT"}, "Tidx": {"type": "DT_INT32"}}}, {"name": "StatefulPartitionedCall/sequential_3/densenet121/pool3_bn/FusedBatchNormV3/Mul", "op": "Mul", "input": ["StatefulPartitionedCall/sequential_3/densenet121/conv3_block12_concat/concat", "StatefulPartitionedCall/sequential_3/densenet121/pool3_bn/FusedBatchNormV3/Scaled"], "attr": {"T": {"type": "DT_FLOAT"}}}, {"name": "StatefulPartitionedCall/sequential_3/densenet121/pool3_bn/FusedBatchNormV3", "op": "Add", "input": ["StatefulPartitionedCall/sequential_3/densenet121/pool3_bn/FusedBatchNormV3/Mul", "StatefulPartitionedCall/sequential_3/densenet121/pool3_bn/FusedBatchNormV3/Offset"], "attr": {"T": {"type": "DT_FLOAT"}}}, {"name": "StatefulPartitionedCall/sequential_3/densenet121/pool3_relu/Relu", "op": "Relu", "input": ["StatefulPartitionedCall/sequential_3/densenet121/pool3_bn/FusedBatchNormV3"], "attr": {"T": {"type": "DT_FLOAT"}}}, {"name": "StatefulPartitionedCall/sequential_3/densenet121/pool3_conv/Conv2D", "op": "Conv2D", "input": ["StatefulPartitionedCall/sequential_3/densenet121/pool3_relu/Relu", "StatefulPartitionedCall/sequential_3/densenet121/pool3_conv/Conv2D/ReadVariableOp"], "device": "/device:CPU:0", "attr": {"dilations": {"list": {"i": ["1", "1", "1", "1"]}}, "padding": {"s": "VkFMSUQ="}, "T": {"type": "DT_FLOAT"}, "use_cudnn_on_gpu": {"b": true}, "strides": {"list": {"i": ["1", "1", "1", "1"]}}, "explicit_paddings": {"list": {}}, "data_format": {"s": "TkhXQw=="}}}, {"name": "StatefulPartitionedCall/sequential_3/densenet121/pool3_pool/AvgPool", "op": "AvgPool", "input": ["StatefulPartitionedCall/sequential_3/densenet121/pool3_conv/Conv2D"], "attr": {"strides": {"list": {"i": ["1", "2", "2", "1"]}}, "ksize": {"list": {"i": ["1", "2", "2", "1"]}}, "padding": {"s": "VkFMSUQ="}, "T": {"type": "DT_FLOAT"}, "data_format": {"s": "TkhXQw=="}}}, {"name": "StatefulPartitionedCall/sequential_3/densenet121/conv4_block1_0_bn/FusedBatchNormV3/Mul", "op": "Mul", "input": ["StatefulPartitionedCall/sequential_3/densenet121/pool3_pool/AvgPool", "StatefulPartitionedCall/sequential_3/densenet121/conv4_block1_0_bn/FusedBatchNormV3/Scaled"], "attr": {"T": {"type": "DT_FLOAT"}}}, {"name": "StatefulPartitionedCall/sequential_3/densenet121/conv4_block1_0_bn/FusedBatchNormV3", "op": "Add", "input": ["StatefulPartitionedCall/sequential_3/densenet121/conv4_block1_0_bn/FusedBatchNormV3/Mul", "StatefulPartitionedCall/sequential_3/densenet121/conv4_block1_0_bn/FusedBatchNormV3/Offset"], "attr": {"T": {"type": "DT_FLOAT"}}}, {"name": "StatefulPartitionedCall/sequential_3/densenet121/conv4_block1_0_relu/Relu", "op": "Relu", "input": ["StatefulPa…
efulPartitionedCall/sequential_3/densenet121/conv2_block5_2_conv/Conv2D/ReadVariableOp", "shape": [3, 3, 128, 32], "dtype": "float32"}, {"name": "StatefulPartitionedCall/sequential_3/densenet121/conv2_block5_concat/concat/axis", "shape": [], "dtype": "int32"}, {"name": "StatefulPartitionedCall/sequential_3/densenet121/conv2_block6_2_conv/Conv2D/ReadVariableOp", "shape": [3, 3, 128, 32], "dtype": "float32"}, {"name": "StatefulPartitionedCall/sequential_3/densenet121/conv2_block6_concat/concat/axis", "shape": [], "dtype": "int32"}, {"name": "StatefulPartitionedCall/sequential_3/densenet121/pool2_conv/Conv2D/ReadVariableOp", "shape": [1, 1, 256, 128], "dtype": "float32"}, {"name": "StatefulPartitionedCall/sequential_3/densenet121/conv3_block1_2_conv/Conv2D/ReadVariableOp", "shape": [3, 3, 128, 32], "dtype": "float32"}, {"name": "StatefulPartitionedCall/sequential_3/densenet121/conv3_block1_concat/concat/axis", "shape": [], "dtype": "int32"}, {"name": "StatefulPartitionedCall/sequential_3/densenet121/conv3_block2_2_conv/Conv2D/ReadVariableOp", "shape": [3, 3, 128, 32], "dtype": "float32"}, {"name": "StatefulPartitionedCall/sequential_3/densenet121/conv3_block2_concat/concat/axis", "shape": [], "dtype": "int32"}, {"name": "StatefulPartitionedCall/sequential_3/densenet121/conv3_block3_2_conv/Conv2D/ReadVariableOp", "shape": [3, 3, 128, 32], "dtype": "float32"}, {"name": "StatefulPartitionedCall/sequential_3/densenet121/conv3_block3_concat/concat/axis", "shape": [], "dtype": "int32"}, {"name": "StatefulPartitionedCall/sequential_3/densenet121/conv3_block4_2_conv/Conv2D/ReadVariableOp", "shape": [3, 3, 128, 32], "dtype": "float32"}, {"name": "StatefulPartitionedCall/sequential_3/densenet121/conv3_block4_concat/concat/axis", "shape": [], "dtype": "int32"}, {"name": "StatefulPartitionedCall/sequential_3/densenet121/conv3_block5_2_conv/Conv2D/ReadVariableOp", "shape": [3, 3, 128, 32], "dtype": "float32"}, {"name": "StatefulPartitionedCall/sequential_3/densenet121/conv3_block5_concat/concat/axis", "shape": [], "dtype": "int32"}, {"name": "StatefulPartitionedCall/sequential_3/densenet121/conv3_block6_2_conv/Conv2D/ReadVariableOp", "shape": [3, 3, 128, 32], "dtype": "float32"}, {"name": "StatefulPartitionedCall/sequential_3/densenet121/conv3_block6_concat/concat/axis", "shape": [], "dtype": "int32"}, {"name": "StatefulPartitionedCall/sequential_3/densenet121/conv3_block7_2_conv/Conv2D/ReadVariableOp", "shape": [3, 3, 128, 32], "dtype": "float32"}, {"name": "StatefulPartitionedCall/sequential_3/densenet121/conv3_block7_concat/concat/axis", "shape": [], "dtype": "int32"}, {"name": "StatefulPartitionedCall/sequential_3/densenet121/conv3_block8_2_conv/Conv2D/ReadVariableOp", "shape": [3, 3, 128, 32], "dtype": "float32"}, {"name": "StatefulPartitionedCall/sequential_3/densenet121/conv3_block8_concat/concat/axis", "shape": [], "dtype": "int32"}, {"name": "StatefulPartitionedCall/sequential_3/densenet121/conv3_block9_2_conv/Conv2D/ReadVariableOp", "shape": [3, 3, 128, 32], "dtype": "float32"}, {"name": "StatefulPartitionedCall/sequential_3/densenet121/conv3_block9_concat/concat/axis", "shape": [], "dtype": "int32"}, {"name": "StatefulPartitionedCall/sequential_3/densenet121/conv3_block10_2_conv/Conv2D/ReadVariableOp", "shape": [3, 3, 128, 32], "dtype": "float32"}, {"name": "StatefulPartitionedCall/sequential_3/densenet121/conv3_block10_concat/concat/axis", "shape": [], "dtype": "int32"}, {"name": "StatefulPartitionedCall/sequential_3/densenet121/conv3_block11_2_conv/Conv2D/ReadVariableOp", "shape": [3, 3, 128, 32], "dtype": "float32"}, {"name": "StatefulPartitionedCall/sequential_3/densenet121/conv3_block11_concat/concat/axis", "shape": [], "dtype": "int32"}, {"name": "StatefulPartitionedCall/sequential_3/densenet121/conv3_block12_2_conv/Conv2D/ReadVariableOp", "shape": [3, 3, 128, 32], "dtype": "float32"}, {"name": "StatefulPartitionedCall/sequential_3/densenet121/conv3_block12_concat/concat/axis", "shape": [], "dtype": "int32"}, {"name": "StatefulPartitionedCall/sequential_3/densenet121/pool3_conv/Conv2D/ReadVariableOp", "shape": [1, 1, 512, 256], "dtype": "float32"}, {"name": "StatefulPartitionedCall/sequential_3/densenet121/conv4_block1_2_conv/Conv2D/ReadVariableOp", "shape": [3, 3, 128, 32], "dtype": "float32"}, {"name": "StatefulPartitionedCall/sequential_3/densenet121/conv4_block1_concat/concat/axis", "shape": [], "dtype": "int32"}, {"name": "StatefulPartitionedCall/sequential_3/densenet121/conv4_block2_2_conv/Conv2D/ReadVariableOp", "shape": [3, 3, 128, 32], "dtype": "float32"}, {"name": "StatefulPartitionedCall/sequential_3/densenet121/conv4_block2_concat/concat/axis", "shape": [], "dtype": "int32"}, {"name": "StatefulPartitionedCall/sequential_3/densenet121/conv4_block3_2_conv/Conv2D/ReadVariableOp", "shape": [3, 3, 128, 32], "dtype": "float32"}, {"name": "StatefulPartitionedCall/sequential_3/densenet121/conv4_block3_concat/concat/axis", "shape": [], "dtype": "int32"}, {"name": "StatefulPartitionedCall/sequential_3/densenet121/conv4_block4_2_conv/Conv2D/ReadVariableOp", "shape": [3, 3, 128, 32], "dtype": "float32"}, {"name": "StatefulPartitionedCall/sequential_3/densenet121/conv4_block4_concat/concat/axis", "shape": [], "dtype": "int32"}, {"name": "StatefulPartitionedCall/sequential_3/densenet121/conv4_block5_2_conv/Conv2D/ReadVariableOp", "shape": [3, 3, 128, 32], "dtype": "float32"}, {"name": "StatefulPartitionedCall/sequential_3/densenet121/conv4_block5_concat/concat/axis", "shape": [], "dtype": "int32"}, {"name": "StatefulPartitionedCall/sequential_3/densenet121/conv4_block6_2_conv/Conv2D/ReadVariableOp", "shape": [3, 3, 128, 32], "dtype": "float32"}, {"name": "StatefulPartitionedCall/sequential_3/densenet121/conv4_block6_concat/concat/axis", "shape": [], "dtype": "int32"}, {"name": "StatefulPartitionedCall/sequential_3/densenet121/conv4_block7_2_conv/Conv2D/ReadVariableOp", "shape": [3, 3, 128, 32], "dtype": "float32"}, {"name": "StatefulPartitionedCall/sequential_3/densenet121/conv4_block7_concat/concat/axis", "shape": [], "dtype": "int32"}, {"name": "StatefulPartitionedCall/sequential_3/densenet121/conv4_block8_2_conv/Conv2D/ReadVariableOp", "shape": [3, 3, 128, 32], "dtype": "float32"}, {"name": "StatefulPartitionedCall/sequential_3/densenet121/conv4_block8_concat/concat/axis", "shape": [], "dtype": "int32"}, {"name": "StatefulPartitionedCall/sequential_3/densenet121/conv4_block9_2_conv/Conv2D/ReadVariableOp", "shape": [3, 3, 128, 32], "dtype": "float32"}, {"name": "StatefulPartitionedCall/sequential_3/densenet121/conv4_block9_concat/concat/axis", "shape": [], "dtype": "int32"}, {"name": "StatefulPartitionedCall/sequential_3/densenet121/conv4_block10_2_conv/Conv2D/ReadVariableOp", "shape": [3, 3, 128, 32], "dtype": "float32"}, {"name": "StatefulPartitionedCall/sequential_3/densenet121/conv4_block10_concat/concat/axis", "shape": [], "dtype": "int32"}, {"name": "StatefulPartitionedCall/sequential_3/densenet121/conv4_block11_2_conv/Conv2D/ReadVariableOp", "shape": [3, 3, 128, 32], "dtype": "float32"}, {"name": "StatefulPartitionedCall/sequential_3/densenet121/conv4_block11_concat/concat/axis", "shape": [], "dtype": "int32"}, {"name": "StatefulPartitionedCall/sequential_3/densenet121/conv4_block12_2_conv/Conv2D/ReadVariableOp", "shape": [3, 3, 128, 32], "dtype": "float32"}, {"name": "StatefulPartitionedCall/sequential_3/densenet121/conv4_block12_concat/concat/axis", "shape": [], "dtype": "int32"}, {"name": "StatefulPartitionedCall/sequential_3/densenet121/conv4_block13_2_conv/Conv2D/ReadVariableOp", "shape": [3, 3, 128, 32], "dtype": "float32"}, {"name": "StatefulPartitionedCall/sequential_3/densenet121/conv4_block13_concat/concat/axis", "shape": [], "dtype": "int32"}, {"name": "StatefulPartitionedCall/sequential_3/densenet121/conv4_block14_2_conv/Conv2D/ReadVariableOp", "shape": [3, 3, 128, 32], "dtype": "float32"}, {"name": "StatefulPartitionedCall/sequential_3/densenet121/conv4_block14_concat/concat/axis", "shape": [], "dtype": "int32"}, {"name": "StatefulPartitionedCall/sequential_3/densenet121/conv4_block15_2_conv/Conv2D/ReadVariableOp", "shape": [3, 3, 128, 32], "dtype": "float32"}, {"name": "StatefulPartitionedCall/sequential_3/densenet121/conv4_block15_concat/concat/axis", "shape": [], "dtype": "int32"}, {"name": "StatefulPartitionedCall/sequential_3/densenet121/conv4_block16_2_conv/Conv2D/ReadVariableOp", "shape": [3, 3, 128, 32], "dtype": "float32"}, {"name": "StatefulPartitionedCall/sequential_3/densenet121/conv4_block16_concat/concat/axis", "shape": [], "dtype": "int32"}, {"name": "StatefulPartitionedCall/sequential_3/densenet121/conv4_block17_2_conv/Conv2D/ReadVariableOp", "shape": [3, 3, 128, 32], "dtype": "float32"}, {"name": "StatefulPartitionedCall/sequential_3/densenet121/conv4_block17_concat/concat/axis", "shape": [], "dtype": "int32"}, {"name": "StatefulPartitionedCall/sequential_3/densenet121/conv4_block18_2_conv/Conv2D/ReadVariableOp", "shape": [3, 3, 128, 32], "dtype": "float32"}, {"name": "StatefulPartitionedCall/sequential_3/densenet121/conv4_block18_concat/concat/axis", "shape": [], "dtype": "int32"}, {"name": "StatefulPartitionedCall/sequential_3/densenet121/conv4_block19_2_conv/Conv2D/ReadVariableOp", "shape": [3, 3, 128, 32], "dtype": "float32"}, {"name": "StatefulPartitionedCall/sequential_3/densenet121/conv4_block19_concat/concat/axis", "shape": [], "dtype": "int32"}, {"name": "StatefulPartitionedCall/sequential_3/densenet121/conv4_block20_2_conv/Conv2D/ReadVariableOp", "shape": [3, 3, 128, 32], "dtype": "float32"}, {"name": "StatefulPartitionedCall/sequential_3/densenet121/conv4_block20_concat/concat/axis", "shape": [], "dtype": "int32"}, {"name": "StatefulPartitionedCall/sequential_3/densenet121/conv4_block21_2_conv/Conv2D/ReadVariableOp", "shape": [3, 3, 128, 32], "dtype": "float32"}, {"name": "StatefulPartitionedCall/sequential_3/densenet121/conv4_block21_concat/concat/axis", "shape": [], "dtype": "int32"}, {"name": "StatefulPartitionedCall/sequential_3/densenet121/conv4_block22_2_conv/Conv2D/ReadVariableOp", "shape": [3, 3, 128, 32], "dtype": "float32"}, {"name": "StatefulPartitionedCall/sequential_3/densenet121/conv4_block22_concat/concat/axis", "shape": [], "dtype": "int32"}, {"name": "StatefulPartitionedCall/sequential_3/densenet121/conv4_block23_2_conv/Conv2D/ReadVariableOp", "shape": [3, 3, 128, 32], "dtype": "float32"}, {"name": "StatefulPartitionedCall/sequential_3/densenet121/conv4_block23_concat/concat/axis", "shape": [], "dtype": "int32"}, {"name": "StatefulPartitionedCall/sequential_3/densenet121/conv4_block24_2_conv/Conv2D/ReadVariableOp", "shape": [3, 3, 128, 32], "dtype": "float32"}, {"name": "StatefulPartitionedCall/sequential_3/densenet121/conv4_block24_concat/concat/axis", "shape": [], "dtype": "int32"}, {"name": "StatefulPartitionedCall/sequential_3/densenet121/pool4_conv/Conv2D/ReadVariableOp", "shape": [1, 1, 1024, 512], "dtype": "float32"}, {"name": "StatefulPartitionedCall/sequential_3/densenet121/conv5_block1_2_conv/Conv2D/ReadVariableOp", "shape": [3, 3, 128, 32], "dtype": "float32"}, {"name": "StatefulPartitionedCall/sequential_3/densenet121/conv5_block1_concat/concat/axis", "shape": [], "dtype": "int32"}, {"name": "StatefulPartitionedCall/sequential_3/densenet121/conv5_block2_2_conv/Conv2D/ReadVariableOp", "shape": [3, 3, 128, 32], "dtype": "float32"}, {"name": "StatefulPartitionedCall/sequential_3/densenet121/conv5_block2_concat/concat/axis", "shape": [], "dtype": "int32"}, {"name": "StatefulPartitionedCall/sequential_3/densenet121/conv5_block3_2_conv/Conv2D/ReadVariableOp", "shape": [3, 3, 128, 32], "dtype": "float32"}, {"name": "StatefulPartitionedCall/sequential_3/densenet121/conv5_block3_concat/concat/axis", "shape": [], "dtype": "int32"}, {"name": "StatefulPartitionedCall/sequential_3/densenet121/conv5_block4_2_conv/Conv2D/ReadVariableOp", "shape": [3, 3, 128, 32], "dtype": "float32"}, {"name": "StatefulPartitionedCall/sequential_3/densenet121/conv5_block4_concat/concat/axis", "shape": [], "dtype": "int32"}, {"name": "StatefulPartitionedCall/sequential_3/densenet121/conv5_block5_2_conv/Conv2D/ReadVariableOp", "shape": [3, 3, 128, 32], "dtype": "float32"}, {"name": "StatefulPartitionedCall/sequential_3/densenet121/conv5_block5_concat/concat/axis", "shape": [], "dtype": "int32"}, {"name": "StatefulPartitionedCall/sequential_3/densenet121/conv5_block6_2_conv/Conv2D/ReadVariableOp", "shape": [3, 3, 128, 32], "dtype": "float32"}, {"name": "StatefulPartitionedCall/sequential_3/densenet121/conv5_block6_concat/concat/axis", "shape": [], "dtype": "int32"}, {"name": "StatefulPartitionedCall/sequential_3/densenet121/conv5_block7_2_conv/Conv2D/ReadVariableOp", "shape": [3, 3, 128, 32], "dtype": "float32"}, {"name": "StatefulPartitionedCall/sequential_3/densenet121/conv5_block7_concat/concat/axis", "shape": [], "dtype": "int32"}, {"name": "StatefulPartitionedCall/sequential_3/densenet121/conv5_block8_2_conv/Conv2D/ReadVariableOp", "shape": [3, 3, 128, 32], "dtype": "float32"}, {"name": "StatefulPartitionedCall/sequential_3/densenet121/conv5_block8_concat/concat/axis", "shape": [], "dtype": "int32"}, {"name": "StatefulPartitionedCall/sequential_3/densenet121/conv5_block9_2_conv/Conv2D/ReadVariableOp", "shape": [3, 3, 128, 32], "dtype": "float32"}, {"name": "StatefulPartitionedCall/sequential_3/densenet121/conv5_block9_concat/concat/axis", "shape": [], "dtype": "int32"}, {"name": "StatefulPartitionedCall/sequential_3/densenet121/conv5_block10_2_conv/Conv2D/ReadVariableOp", "shape": [3, 3, 128, 32], "dtype": "float32"}, {"name": "StatefulPartitionedCall/sequential_3/densenet121/conv5_block10_concat/concat/axis", "shape": [], "dtype": "int32"}, {"name": "StatefulPartitionedCall/sequential_3/densenet121/conv5_block11_2_conv/Conv2D/ReadVariableOp", "shape": [3, 3, 128, 32], "dtype": "float32"}, {"name": "StatefulPartitionedCall/sequential_3/densenet121/conv5_block11_concat/concat/axis", "shape": [], "dtype": "int32"}, {"name": "StatefulPartitionedCall/sequential_3/densenet121/conv5_block12_2_conv/Conv2D/ReadVariableOp", "shape": [3, 3, 128, 32], "dtype": "float32"}, {"name": "StatefulPartitionedCall/sequential_3/densenet121/conv5_block12_concat/concat/axis", "shape": [], "dtype": "int32"}, {"name": "StatefulPartitionedCall/sequential_3/densenet121/conv5_block13_2_conv/Conv2D/ReadVariableOp", "shape": [3, 3, 128, 32], "dtype": "float32"}, {"name": "StatefulPartitionedCall/sequential_3/densenet121/conv5_block13_concat/concat/axis", "shape": [], "dtype": "int32"}, {"name": "StatefulPartitionedCall/sequential_3/densenet121/conv5_block14_2_conv/Conv2D/ReadVariableOp", "shape": [3, 3, 128, 32], "dtype": "float32"}, {"name": "StatefulPartitionedCall/sequential_3/densenet121/conv5_block14_concat/concat/axis", "shape": [], "dtype": "int32"}, {"name": "StatefulPartitionedCall/sequential_3/densenet121/conv5_block15_2_conv/Conv2D/ReadVariableOp", "shape": [3, 3, 128, 32], "dtype": "float32"}, {"name": "StatefulPartitionedCall/sequential_3/densenet121/conv5_block15_concat/concat/axis", "shape": [], "dtype": "int32"}, {"name": "StatefulPartitionedCall/sequential_3/densenet121/conv5_block16_2_conv/Conv2D/ReadVariableOp", "shape": [3, 3, 128, 32], "dtype": "float32"}, {"name": "StatefulPartitionedCall/sequential_3/densenet121/conv5_block16_concat/concat/axis", "shape": [], "dtype": "int32"}, {"name": "StatefulPartitionedCall/sequential_3/densenet121/avg_pool/Mean/reduction_indices", "shape": [2], "dtype": "int32"}, {"name": "StatefulPartitionedCall/sequential_3/densenet121/predictions/MatMul/ReadVariableOp", "shape": [1024, 1000], "dtype": "float32"}, {"name": "StatefulPartitionedCall/sequential_3/densenet121/predictions/BiasAdd/ReadVariableOp", "shape": [1000], "dtype": "float32"}, {"name": "StatefulPartitionedCall/sequential_3/dense_6/MatMul/ReadVariableOp", "shape": [1000, 100], "dtype": "float32"}, {"name": "StatefulPartitionedCall/sequential_3/dense_6/BiasAdd/ReadVariableOp", "shape": [100], "dtype": "float32"}, {"name": "StatefulPartitionedCall/sequential_3/dense_7/MatMul/ReadVariableOp", "shape": [100, 5], "dtype": "float32"}, {"name": "StatefulPartitionedCall/sequential_3/dense_7/BiasAdd/ReadVariableOp", "shape": [5], "dtype": "float32"}, {"name": "StatefulPartitionedCall/sequential_3/densenet121/conv1/conv/Conv2D_weights", "shape": [7, 7, 3, 64], "dtype": "float32"}, {"name": "StatefulPartitionedCall/sequential_3/densenet121/conv1/conv/Conv2D_bn_offset", "shape": [64], "dtype": "float32"}, {"name": "StatefulPartitionedCall/sequential_3/densenet121/conv2_block1_1_conv/Conv2D_weights", "shape": [1, 1, 64, 128], "dtype": "float32"}, {"name": "StatefulPartitionedCall/sequential_3/densenet121/conv3_block11_0_bn/FusedBatchNormV3/Offset", "shape": [448], "dtype": "float32"}, {"name": "StatefulPartitionedCall/sequential_3/densenet121/conv2_block1_1_conv/Conv2D_bn_offset", "shape": [128], "dtype": "float32"}, {"name": "StatefulPartitionedCall/sequential_3/densenet121/conv2_block2_1_conv/Conv2D_weights", "shape": [1, 1, 96, 128], "dtype": "float32"}, {"name": "StatefulPartitionedCall/sequential_3/densenet121/conv2_block2_1_conv/Conv2D_bn_offset", "shape": [128], "dtype": "float32"}, {"name": "StatefulPartitionedCall/sequential_3/densenet121/conv2_block3_1_conv/Conv2D_weights", "shape": [1, 1, 128, 128], "dtype": "float32"}, {"name": "StatefulPartitionedCall/sequential_3/densenet121/conv3_block10_0_bn/FusedBatchNormV3/Scaled", "shape": [416], "dtype": "float32"}, {"name": "StatefulPartitionedCall/sequential_3/densenet121/conv2_block3_1_conv/Conv2D_bn_offset", "shape": [128], "dtype": "float32"}, {"name": "StatefulPartitionedCall/sequential_3/densenet121/conv2_block4_1_conv/Conv2D_weights", "shape": [1, 1, 160, 128], "dtype": "float32"}, {"name": "StatefulPartitionedCall/sequential_3/densenet121/conv2_block4_1_conv/Conv2D_bn_offset", "shape": [128], "dtype": "float32"}, {"name": "StatefulPartitionedCall/sequential_3/densenet121/conv3_block10_0_bn/FusedBatchNormV3/Offset", "shape": [416], "dtype": "float32"}, {"name": "StatefulPartitionedCall/sequential_3/densenet121/conv2_block5_1_conv/Conv2D_weights", "shape": [1, 1, 192, 128], "dtype": "float32"}, {"name": "StatefulPartitionedCall/sequential_3/densenet121/conv2_block5_1_conv/Conv2D_bn_offset", "shape": [128], "dtype": "float32"}, {"name": "StatefulPartitionedCall/sequential_3/densenet121/conv2_block6_1_conv/Conv2D_weights", "shape": [1, 1, 224, 128], "dtype": "float32"}, {"name": "StatefulPartitionedCall/sequential_3/densenet121/conv2_block6_1_conv/Conv2D_bn_offset", "shape": [128], "dtype": "float32"}, {"name": "StatefulPartitionedCall/sequential_3/densenet121/conv3_block9_0_bn/FusedBatchNormV3/Scaled", "shape": [384], "dtype": "float32"}, {"name": "StatefulPartitionedCall/sequential_3/densenet121/conv3_block1_1_conv/Conv2D_weights", "shape": [1, 1, 128, 128], "dtype": "float32"}, {"name": "StatefulPartitionedCall/sequential_3/densenet121/conv3_block1_1_conv/Conv2D_bn_offset", "shape": [128], "dtype": "float32"}, {"name": "StatefulPartitionedCall/sequential_3/densenet121/conv3_block2_1_conv/Conv2D_weights", "shape": [1, 1, 160, 128], "dtype": "float32"}, {"name": "StatefulPartitionedCall/sequential_3/densenet121/conv3_block9_0_bn/FusedBatchNormV3/Offset", "shape": [384], "dtype": "float32"}, {"name": "StatefulPartitionedCall/sequential_3/densenet121/conv3_block2_1_conv/Conv2D_bn_offset", "shape": [128], "dtype": "float32"}, {"name": "StatefulPartitionedCall/sequential_3/densenet121/conv3_block3_1_conv/Conv2D_weights", "shape": [1, 1, 192, 128], "dtype": "float32"}, {"name": "StatefulPartitionedCall/sequential_3/densenet121/conv3_block3_1_conv/Conv2D_bn_offset", "shape": [128], "dtype": "float32"}, {"name": "StatefulPartitionedCall/sequential_3/densenet121/conv3_block4_1_conv/Conv2D_weights", "shape": [1, 1, 224, 128], "dtype": "float32"}, {"name": "StatefulPartitionedCall/sequential_3/densenet121/conv3_block8_0_bn/FusedBatchNormV3/Scaled", "shape": [352], "dtype": "float32"}, {"name": "StatefulPartitionedCall/sequential_3/densenet121/conv3_block4_1_conv/Conv2D_bn_offset", "shape": [128], "dtype": "float32"}, {"name": "StatefulPartitionedCall/sequential_3/densenet121/conv3_block5_1_conv/Conv2D_weights", "shape": [1, 1, 256, 128], "dtype": "float32"}, {"name": "StatefulPartitionedCall/sequential_3/densenet121/conv3_block5_1_conv/Conv2D_bn_offset", "shape": [128], "dtype": "float32"}, {"name": "StatefulPartitionedCall/sequential_3/densenet121/conv3_block8_0_bn/FusedBatchNormV3/Offset", "shape": [352], "dtype": "float32"}, {"name": "StatefulPartitionedCall/sequential_3/densenet121/conv3_block6_1_conv/Conv2D_weights", "shape": [1, 1, 288, 128], "dtype": "float32"}, {"name": "StatefulPartitionedCall/sequential_3/densenet121/conv3_block6_1_conv/Conv2D_bn_offset", "shape": [128], "dtype": "float32"}, {"name": "StatefulPartitionedCall/sequential_3/densenet121/conv3_block7_1_conv/Conv2D_weights", "shape": [1, 1, 320, 128], "dtype": "float32"}, {"name": "StatefulPartitionedCall/sequential_3/densenet121/conv3_block7_1_conv/Conv2D_bn_offset", "shape": [128], "dtype": "float32"}, {"name": "StatefulPartitionedCall/sequential_3/densenet121/conv3_block7_0_bn/FusedBatchNormV3/Scaled", "shape": [320], "dtype": "float32"}, {"name": "StatefulPartitionedCall/sequential_3/densenet121/conv3_block8_1_conv/Conv2D_weights", "shape": [1, 1, 352, 128], "dtype": "float32"}, {"name": "StatefulPartitionedCall/sequential_3/densenet121/conv3_block8_1_conv/Conv2D_bn_offset", "shape": [128], "dtype": "float32"}, {"name": "StatefulPartitionedCall/sequential_3/densenet121/conv3_block9_1_conv/Conv2D_weights", "shape": [1, 1, 384, 128], "dtype": "float32"}, {"name": "StatefulPartitionedCall/sequential_3/densenet121/conv3_block7_0_bn/FusedBatchNormV3/Offset", "shape": [320], "dtype": "float32"}, {"name": "StatefulPartitionedCall/sequential_3/densenet121/conv3_block9_1_conv/Conv2D_bn_offset", "shape": [128], "dtype": "float32"}, {"name": "StatefulPartitionedCall/sequential_3/densenet121/conv3_block10_1_conv/Conv2D_weights", "shape": [1, 1, 416, 128], "dtype": "float32"}, {"name": "StatefulPartitionedCall/sequential_3/densenet121/conv3_block10_1_conv/Conv2D_bn_offset", "shape": [128], "dtype": "float32"}, {"name": "StatefulPartitionedCall/sequential_3/densenet121/conv3_block11_1_conv/Conv2D_weights", "shape": [1, 1, 448, 128], "dtype": "float32"}, {"name": "StatefulPartitionedCall/sequential_3/densenet121/conv3_block6_0_bn/FusedBatchNormV3/Scaled", "shape": [288], "dtype": "float32"}, {"name": "StatefulPartitionedCall/sequential_3/densenet121/conv3_block11_1_conv/Conv2D_bn_offset", "shape": [128], "dtype": "float32"}, {"name": "StatefulPartitionedCall/sequential_3/densenet121/conv3_block12_1_conv/Conv2D_weights", "shape": [1, 1, 480, 128], "dtype": "float32"}, {"name": "StatefulPartitionedCall/sequential_3/densenet121/conv3_block12_1_conv/Conv2D_bn_offset", "shape": [128], "dtype": "float32"}, {"name": "StatefulPartitionedCall/sequential_3/densenet121/conv3_block6_0_bn/FusedBatchNormV3/Offset", "shape": [288], "dtype": "float32"}, {"name": "StatefulPartitionedCall/sequential_3/densenet121/conv4_block1_1_conv/Conv2D_weights", "shape": [1, 1, 256, 128], "dtype": "float32"}, {"name": "StatefulPartitionedCall/sequential_3/densenet121/conv4_block1_1_conv/Conv2D_bn_offset", "shape": [128], "dtype": "float32"}, {"name": "StatefulPartitionedCall/sequential_3/densenet121/conv4_block2_1_conv/Conv2D_weights", "shape": [1, 1, 288, 128], "dtype": "float32"}, {"name": "StatefulPartitionedCall/sequential_3/densenet121/conv4_block2_1_conv/Conv2D_bn_offset", "shape": [128], "dtype": "float32"}, {"name": "StatefulPartitionedCall/sequential_3/densenet121/conv3_block5_0_bn/FusedBatchNormV3/Scaled", "shape": [256], "dtype": "float32"}, {"name": "StatefulPartitionedCall/sequential_3/densenet121/conv4_block3_1_conv/Conv2D_weights", "shape": [1, 1, 320, 128], "dtype": "float32"}, {"name": "StatefulPartitionedCall/sequential_3/densenet121/conv4_block3_1_conv/Conv2D_bn_offset", "shape": [128], "dtype": "float32"}, {"name": "StatefulPartitionedCall/sequential_3/densenet121/conv4_block4_1_conv/Conv2D_weights", "shape": [1, 1, 352, 128], "dtype": "float32"}, {"name": "StatefulPartitionedCall/sequential_3/densenet121/conv3_block5_0_bn/FusedBatchNormV3/Offset", "shape": [256], "dtype": "float32"}, {"name": "StatefulPartitionedCall/sequential_3/densenet121/conv4_block4_1_conv/Conv2D_bn_offset", "shape": [128], "dtype": "float32"}, {"name": "StatefulPartitionedCall/sequential_3/densenet121/conv4_block5_1_conv/Conv2D_weights", "shape": [1, 1, 384, 128], "dtype": "float32"}, {"name": "StatefulPartitionedCall/sequential_3/densenet121/conv4_block5_1_conv/Conv2D_bn_offset", "shape": [128], "dtype": "float32"}, {"name": "StatefulPartitionedCall/sequential_3/densenet121/conv4_block6_1_conv/Conv2D_weights", "shape": [1, 1, 416, 128], "dtype": "float32"}, {"name": "StatefulPartitionedCall/sequential_3/densenet121/conv3_block4_0_bn/FusedBatchNormV3/Scaled", "shape": [224], "dtype": "float32"}, {"name": "StatefulPartitionedCall/sequential_3/densenet121/conv4_block6_1_conv/Conv2D_bn_offset", "shape": [128], "dtype": "float32"}, {"name": "StatefulPartitionedCall/sequential_3/densenet121/conv4_block7_1_conv/Conv2D_weights", "shape": [1, 1, 448, 128], "dtype": "float32"}, {"name": "StatefulPartitionedCall/sequential_3/densenet121/conv4_block7_1_conv/Conv2D_bn_offset", "shape": [128], "dtype": "float32"}, {"name": "StatefulPartitionedCall/sequential_3/densenet121/conv3_block4_0_bn/FusedBatchNormV3/Offset", "shape": [224], "dtype": "float32"}, {"name": "StatefulPartitionedCall/sequential_3/densenet121/conv4_block8_1_conv/Conv2D_weights", "shape": [1, 1, 480, 128], "dtype": "float32"}, {"name": "StatefulPartitionedCall/sequential_3/densenet121/conv4_block8_1_conv/Conv2D_bn_offset", "shape": [128], "dtype": "float32"}, {"name": "StatefulPartitionedCall/sequential_3/densenet121/conv4_block9_1_conv/Conv2D_weights", "shape": [1, 1, 512, 128], "dtype": "float32"}, {"name": "StatefulPartitionedCall/sequential_3/densenet121/conv4_block9_1_conv/Conv2D_bn_offset", "shape": [128], "dtype": "float32"}, {"name": "StatefulPartitionedCall/sequential_3/densenet121/conv3_block3_0_bn/FusedBatchNormV3/Scaled", "shape": [192], "dtype": "float32"}, {"name": "StatefulPartitionedCall/sequential_3/densenet121/conv4_block10_1_conv/Conv2D_weights", "shape": [1, 1, 544, 128], "dtype": "float32"}, {"name": "StatefulPartitionedCall/sequential_3/densenet121/conv4_block10_1_conv/Conv2D_bn_offset", "shape": [128], "dtype": "float32"}, {"name": "StatefulPartitionedCall/sequential_3/densenet121/conv4_block11_1_conv/Conv2D_weights", "shape": [1, 1, 576, 128], "dtype": "float32"}, {"name": "StatefulPartitionedCall/sequential_3/densenet121/conv3_block3_0_bn/FusedBatchNormV3/Offset", "shape": [192], "dtype": "float32"}, {"name": "StatefulPartitionedCall/sequential_3/densenet121/conv4_block11_1_conv/Conv2D_bn_offset", "shape": [128], "dtype": "float32"}, {"name": "StatefulPartitionedCall/sequential_3/densenet121/conv4_block12_1_conv/Conv2D_weights", "shape": [1, 1, 608, 128], "dtype": "float32"}, {"name": "StatefulPartitionedCall/sequential_3/densenet121/conv4_block12_1_conv/Conv2D_bn_offset", "shape": [128], "dtype": "float32"}, {"name": "StatefulPartitionedCall/sequential_3/densenet121/conv4_block13_1_conv/Conv2D_weights", "shape": [1, 1, 640, 128], "dtype": "float32"}, {"name": "StatefulPartitionedCall/sequential_3/densenet121/conv3_block2_0_bn/FusedBatchNormV3/Scaled", "shape": [160], "dtype": "float32"}, {"name": "StatefulPartitionedCall/sequential_3/densenet121/conv4_block13_1_conv/Conv2D_bn_offset", "shape": [128], "dtype": "float32"}, {"name": "StatefulPartitionedCall/sequential_3/densenet121/conv4_block14_1_conv/Conv2D_weights", "shape": [1, 1, 672, 128], "dtype": "float32"}, {"name": "StatefulPartitionedCall/sequential_3/densenet121/conv4_block14_1_conv/Conv2D_bn_offset", "shape": [128], "dtype": "float32"}, {"name": "StatefulPartitionedCall/sequential_3/densenet121/conv3_block2_0_bn/FusedBatchNormV3/Offset", "shape": [160], "dtype": "float32"}, {"name": "StatefulPartitionedCall/sequential_3/densenet121/conv4_block15_1_conv/Conv2D_weights", "shape": [1, 1, 704, 128], "dtype": "float32"}, {"name": "StatefulPartitionedCall/sequential_3/densenet121/conv4_block15_1_conv/Conv2D_bn_offset", "shape": [128], "dtype": "float32"}, {"name": "StatefulPartitionedCall/sequential_3/densenet121/conv4_block16_1_conv/Conv2D_weights", "shape": [1, 1, 736, 128], "dtype": "float32"}, {"name": "StatefulPartitionedCall/sequential_3/densenet121/conv4_block16_1_conv/Conv2D_bn_offset", "shape": [128], "dtype": "float32"}, {"name": "StatefulPartitionedCall/sequential_3/densenet121/conv3_block1_0_bn/FusedBatchNormV3/Scaled", "shape": [128], "dtype": "float32"}, {"name": "StatefulPartitionedCall/sequential_3/densenet121/conv4_block17_1_conv/Conv2D_weights", "shape": [1, 1, 768, 128], "dtype": "float32"}, {"name": "StatefulPartitionedCall/sequential_3/densenet121/conv4_block17_1_conv/Conv2D_bn_offset", "shape": [128], "dtype": "float32"}, {"name": "StatefulPartitionedCall/sequential_3/densenet121/conv4_block18_1_conv/Conv2D_weights", "shape": [1, 1, 800, 128], "dtype": "float32"}, {"name": "StatefulPartitionedCall/sequential_3/densenet121/conv3_block1_0_bn/FusedBatchNormV3/Offset", "shape": [128], "dtype": "float32"}, {"name": "StatefulPartitionedCall/sequential_3/densenet121/conv4_block18_1_conv/Conv2D_bn_offset", "shape": [128], "dtype": "float32"}, {"name": "StatefulPartitionedCall/sequential_3/densenet121/conv4_block19_1_conv/Conv2D_weights", "shape": [1, 1, 832, 128], "dtype": "float32"}, {"name": "StatefulPartitionedCall/sequential_3/densenet121/conv4_block19_1_conv/Conv2D_bn_offset", "shape": [128], "dtype": "float32"}, {"name": "StatefulPartitionedCall/sequential_3/densenet121/conv4_block20_1_conv/Conv2D_weights", "shape": [1, 1, 864, 128], "dtype": "float32"}, {"name": "StatefulPartitionedCall/sequential_3/densenet121/pool2_bn/FusedBatchNormV3/Scaled", "shape": [256], "dtype": "float32"}, {"name": "StatefulPartitionedCall/sequential_3/densenet121/conv4_block20_1_conv/Conv2D_bn_offset", "shape": [128], "dtype": "float32"}, {"name": "StatefulPartitionedCall/sequential_3/densenet121/conv4_block21_1_conv/Conv2D_weights", "shape": [1, 1, 896, 128], "dtype": "float32"}, {"name": "StatefulPartitionedCall/sequential_3/densenet121/conv4_block21_1_conv/Conv2D_bn_offset", "shape": [128], "dtype": "float32"}, {"name": "StatefulPartitionedCall/sequential_3/densenet121/pool2_bn/FusedBatchNormV3/Offset", "shape": [256], "dtype": "float32"}, {"name": "StatefulPartitionedCall/sequential_3/densenet121/conv4_block22_1_conv/Conv2D_weights", "shape": [1, 1, 928, 128], "dtype": "float32"}, {"name": "StatefulPartitionedCall/sequential_3/densenet121/conv4_block22_1_conv/Conv2D_bn_offset", "shape": [128], "dtype": "float32"}, {"name": "StatefulPartitionedCall/sequential_3/densenet121/conv4_block23_1_conv/Conv2D_weights", "shape": [1, 1, 960, 128], "dtype": "float32"}, {"name": "StatefulPartitionedCall/sequential_3/densenet121/conv4_block23_1_conv/Conv2D_bn_offset", "shape": [128], "dtype": "float32"}, {"name": "StatefulPartitionedCall/sequential_3/densenet121/conv2_block6_0_bn/FusedBatchNormV3/Scaled", "shape": [224], "dtype": "float32"}, {"name": "StatefulPartitionedCall/sequential_3/densenet121/conv4_block24_1_conv/Conv2D_weights", "shape": [1, 1, 992, 128], "dtype": "float32"}, {"name": "StatefulPartitionedCall/sequential_3/densenet121/conv4_block24_1_conv/Conv2D_bn_offset", "shape": [128], "dtype": "float32"}, {"name": "StatefulPartitionedCall/sequential_3/densenet121/conv5_block1_1_conv/Conv2D_weights", "shape": [1, 1, 512, 128], "dtype": "float32"}, {"name": "StatefulPartitionedCall/sequential_3/densenet121/conv2_block6_0_bn/FusedBatchNormV3/Offset", "shape": [224], "dtype": "float32"}, {"name": "StatefulPartitionedCall/sequential_3/densenet121/conv5_block1_1_conv/Conv2D_bn_offset", "shape": [128], "dtype": "float32"}, {"name": "StatefulPartitionedCall/sequential_3/densenet121/conv5_block2_1_conv/Conv2D_weights", "shape": [1, 1, 544, 128], "dtype": "float32"}, {"name": "StatefulPartitionedCall/sequential_3/densenet121/conv5_block2_1_conv/Conv2D_bn_offset", "shape": [128], "dtype": "float32"}, {"name": "StatefulPartitionedCall/sequential_3/densenet121/conv5_block3_1_conv/Conv2D_weights", "shape": [1, 1, 576, 128], "dtype": "float32"}, {"name": "StatefulPartitionedCall/sequential_3/densenet121/conv2_block5_0_bn/FusedBatchNormV3/Scaled", "shape": [192], "dtype": "float32"}, {"name": "StatefulPartitionedCall/sequential_3/densenet121/conv5_block3_1_conv/Conv2D_bn_offset", "shape": [128], "dtype": "float32"}, {"name": "StatefulPartitionedCall/sequential_3/densenet121/conv5_block4_1_conv/Conv2D_weights", "shape": [1, 1, 608, 128], "dtype": "float32"}, {"name": "StatefulPartitionedCall/sequential_3/densenet121/conv5_block4_1_conv/Conv2D_bn_offset", "shape": [128], "dtype": "float32"}, {"name": "StatefulPartitionedCall/sequential_3/densenet121/conv2_block5_0_bn/FusedBatchNormV3/Offset", "shape": [192], "dtype": "float32"}, {"name": "StatefulPartitionedCall/sequential_3/densenet121/conv5_block5_1_conv/Conv2D_weights", "shape": [1, 1, 640, 128], "dtype": "float32"}, {"name": "StatefulPartitionedCall/sequential_3/densenet121/conv5_block5_1_conv/Conv2D_bn_offset", "shape": [128], "dtype": "float32"}, {"name": "StatefulPartitionedCall/sequential_3/densenet121/conv5_block6_1_conv/Conv2D_weights", "shape": [1, 1, 672, 128], "dtype": "float32"}, {"name": "StatefulPartitionedCall/sequential_3/densenet121/conv5_block6_1_conv/Conv2D_bn_offset", "shape": [128], "dtype": "float32"}, {"name": "StatefulPartitionedCall/sequential_3/densenet121/conv2_block4_0_bn/FusedBatchNormV3/Scaled", "shape": [160], "dtype": "float32"}, {"name": "StatefulPartitionedCall/sequential_3/densenet121/conv5_block7_1_conv/Conv2D_weights", "shape": [1, 1, 704, 128], "dtype": "float32"}, {"name": "StatefulPartitionedCall/sequential_3/densenet121/conv5_block7_1_conv/Conv2D_bn_offset", "shape": [128], "dtype": "float32"}, {"name": "StatefulPartitionedCall/sequential_3/densenet121/conv5_block8_1_conv/Conv2D_weights", "shape": [1, 1, 736, 128], "dtype": "float32"}, {"name": "StatefulPartitionedCall/sequential_3/densenet121/conv2_block4_0_bn/FusedBatchNormV3/Offset", "shape": [160], "dtype": "float32"}, {"name": "StatefulPartitionedCall/sequential_3/densenet121/conv5_block8_1_conv/Conv2D_bn_offset", "shape": [128], "dtype": "float32"}, {"name": "StatefulPartitionedCall/sequential_3/densenet121/conv5_block9_1_conv/Conv2D_weights", "shape": [1, 1, 768, 128], "dtype": "float32"}, {"name": "StatefulPartitionedCall/sequential_3/densenet121/conv5_block9_1_conv/Conv2D_bn_offset", "shape": [128], "dtype": "float32"}, {"name": "StatefulPartitionedCall/sequential_3/densenet121/conv5_block10_1_conv/Conv2D_weights", "shape": [1, 1, 800, 128], "dtype": "float32"}, {"name": "StatefulPartitionedCall/sequential_3/densenet121/conv2_block3_0_bn/FusedBatchNormV3/Scaled", "shape": [128], "dtype": "float32"}, {"name": "StatefulPartitionedCall/sequential_3/densenet121/conv5_block10_1_conv/Conv2D_bn_offset", "shape": [128], "dtype": "float32"}, {"name": "StatefulPartitionedCall/sequential_3/densenet121/conv5_block11_1_conv/Conv2D_weights", "shape": [1, 1, 832, 128], "dtype": "float32"}, {"name": "StatefulPartitionedCall/sequential_3/densenet121/conv5_block11_1_conv/Conv2D_bn_offset", "shape": [128], "dtype": "float32"}, {"name": "StatefulPartitionedCall/sequential_3/densenet121/conv2_block3_0_bn/FusedBatchNormV3/Offset", "shape": [128], "dtype": "float32"}, {"name": "StatefulPartitionedCall/sequential_3/densenet121/conv5_block12_1_conv/Conv2D_weights", "shape": [1, 1, 864, 128], "dtype": "float32"}, {"name": "StatefulPartitionedCall/sequential_3/densenet121/conv5_block12_1_conv/Conv2D_bn_offset", "shape": [128], "dtype": "float32"}, {"name": "StatefulPartitionedCall/sequential_3/densenet121/conv5_block13_1_conv/Conv2D_weights", "shape": [1, 1, 896, 128], "dtype": "float32"}, {"name": "StatefulPartitionedCall/sequential_3/densenet121/conv5_block13_1_conv/Conv2D_bn_offset", "shape": [128], "dtype": "float32"}, {"name": "StatefulPartitionedCall/sequential_3/densenet121/conv2_block2_0_bn/FusedBatchNormV3/Scaled", "shape": [96], "dtype": "float32"}, {"name": "StatefulPartitionedCall/sequential_3/densenet121/conv5_block14_1_conv/Conv2D_weights", "shape": [1, 1, 928, 128], "dtype": "float32"}, {"name": "StatefulPartitionedCall/sequential_3/densenet121/conv5_block14_1_conv/Conv2D_bn_offset", "shape": [128], "dtype": "float32"}, {"name": "StatefulPartitionedCall/sequential_3/densenet121/conv5_block15_1_conv/Conv2D_weights", "shape": [1, 1, 960, 128], "dtype": "float32"}, {"name": "StatefulPartitionedCall/sequential_3/densenet121/conv2_block2_0_bn/FusedBatchNormV3/Offset", "shape": [96], "dtype": "float32"}, {"name": "StatefulPartitionedCall/sequential_3/densenet121/conv5_block15_1_conv/Conv2D_bn_offset", "shape": [128], "dtype": "float32"}, {"name": "StatefulPartitionedCall/sequential_3/densenet121/conv5_block16_1_conv/Conv2D_weights", "shape": [1, 1, 992, 128], "dtype": "float32"}, {"name": "StatefulPartitionedCall/sequential_3/densenet121/conv5_block16_1_conv/Conv2D_bn_offset", "shape": [128], "dtype": "float32"}, {"name": "StatefulPartitionedCall/sequential_3/densenet121/conv2_block1_0_bn/FusedBatchNormV3/Scaled", "shape": [64], "dtype": "float32"}, {"name": "StatefulPartitionedCall/sequential_3/densenet121/conv2_block1_0_bn/FusedBatchNormV3/Offset", "shape": [64], "dtype": "float32"}, {"name": "StatefulPartitionedCall/sequential_3/densenet121/bn/FusedBatchNormV3/Scaled", "shape": [1024], "dtype": "float32"}, {"name": "StatefulPartitionedCall/sequential_3/densenet121/bn/FusedBatchNormV3/Offset", "shape": [1024], "dtype": "float32"}, {"name": "StatefulPartitionedCall/sequential_3/densenet121/conv5_block16_0_bn/FusedBatchNormV3/Scaled", "shape": [992], "dtype": "float32"}, {"name": "StatefulPartitionedCall/sequential_3/densenet121/conv5_block16_0_bn/FusedBatchNormV3/Offset", "shape": [992], "dtype": "float32"}, {"name": "StatefulPartitionedCall/sequential_3/densenet121/conv5_block15_0_bn/FusedBatchNormV3/Scaled", "shape": [960], "dtype": "float32"}, {"name": "StatefulPartitionedCall/sequential_3/densenet121/conv5_block15_0_bn/FusedBatchNormV3/Offset", "shape": [960], "dtype": "float32"}, {"name": "StatefulPartitionedCall/sequential_3/densenet121/conv5_block14_0_bn/FusedBatchNormV3/Scaled", "shape": [928], "dtype": "float32"}, {"name": "StatefulPartitionedCall/sequential_3/densenet121/conv5_block14_0_bn/FusedBatchNormV3/Offset", "shape": [928], "dtype": "float32"}, {"name": "StatefulPartitionedCall/sequential_3/densenet121/conv5_block13_0_bn/FusedBatchNormV3/Scaled", "shape": [896], "dtype": "float32"}, {"name": "StatefulPartitionedCall/sequential_3/densenet121/conv5_block13_0_bn/FusedBatchNormV3/Offset", "shape": [896], "dtype": "float32"}, {"name": "StatefulPartitionedCall/sequential_3/densenet121/conv5_block12_0_bn/FusedBatchNormV3/Scaled", "shape": [864], "dtype": "float32"}, {"name": "StatefulPartitionedCall/sequential_3/densenet121/conv5_block12_0_bn/FusedBatchNormV3/Offset", "shape": [864], "dtype": "float32"}, {"name": "StatefulPartitionedCall/sequential_3/densenet121/conv5_block11_0_bn/FusedBatchNormV3/Scaled", "shape": [832], "dtype": "float32"}, {"name": "StatefulPartitionedCall/sequential_3/densenet121/conv5_block11_0_bn/FusedBatchNormV3/Offset", "shape": [832], "dtype": "float32"}, {"name": "StatefulPartitionedCall/sequential_3/densenet121/conv5_block10_0_bn/FusedBatchNormV3/Scaled", "shape": [800], "dtype": "float32"}, {"name": "StatefulPartitionedCall/sequential_3/densenet121/conv5_block10_0_bn/FusedBatchNormV3/Offset", "shape": [800], "dtype": "float32"}, {"name": "StatefulPartitionedCall/sequential_3/densenet121/conv5_block9_0_bn/FusedBatchNormV3/Scaled", "shape": [768], "dtype": "float32"}, {"name": "StatefulPartitionedCall/sequential_3/densenet121/conv5_block9_0_bn/FusedBatchNormV3/Offset", "shape": [768], "dtype": "float32"}, {"name": "StatefulPartitionedCall/sequential_3/densenet121/conv5_block8_0_bn/FusedBatchNormV3/Scaled", "shape": [736], "dtype": "float32"}, {"name": "StatefulPartitionedCall/sequential_3/densenet121/conv5_block8_0_bn/FusedBatchNormV3/Offset", "shape": [736], "dtype": "float32"}, {"name": "StatefulPartitionedCall/sequential_3/densenet121/conv5_block7_0_bn/FusedBatchNormV3/Scaled", "shape": [704], "dtype": "float32"}, {"name": "StatefulPartitionedCall/sequential_3/densenet121/conv5_block7_0_bn/FusedBatchNormV3/Offset", "shape": [704], "dtype": "float32"}, {"name": "StatefulPartitionedCall/sequential_3/densenet121/conv5_block6_0_bn/FusedBatchNormV3/Scaled", "shape": [672], "dtype": "float32"}, {"name": "StatefulPartitionedCall/sequential_3/densenet121/conv5_block6_0_bn/FusedBatchNormV3/Offset", "shape": [672], "dtype": "float32"}, {"name": "StatefulPartitionedCall/sequential_3/densenet121/conv5_block5_0_bn/FusedBatchNormV3/Scaled", "shape": [640], "dtype": "float32"}, {"name": "StatefulPartitionedCall/sequential_3/densenet121/conv5_block5_0_bn/FusedBatchNormV3/Offset", "shape": [640], "dtype": "float32"}, {"name": "StatefulPartitionedCall/sequential_3/densenet121/conv5_block4_0_bn/FusedBatchNormV3/Scaled", "shape": [608], "dtype": "float32"}, {"name": "StatefulPartitionedCall/sequential_3/densenet121/conv5_block4_0_bn/FusedBatchNormV3/Offset", "shape": [608], "dtype": "float32"}, {"name": "StatefulPartitionedCall/sequential_3/densenet121/conv5_block3_0_bn/FusedBatchNormV3/Scaled", "shape": [576], "dtype": "float32"}, {"name": "StatefulPartitionedCall/sequential_3/densenet121/conv5_block3_0_bn/FusedBatchNormV3/Offset", "shape": [576], "dtype": "float32"}, {"name": "StatefulPartitionedCall/sequential_3/densenet121/conv5_block2_0_bn/FusedBatchNormV3/Scaled", "shape": [544], "dtype": "float32"}, {"name": "StatefulPartitionedCall/sequential_3/densenet121/conv5_block2_0_bn/FusedBatchNormV3/Offset", "shape": [544], "dtype": "float32"}, {"name": "StatefulPartitionedCall/sequential_3/densenet121/conv5_block1_0_bn/FusedBatchNormV3/Scaled", "shape": [512], "dtype": "float32"}, {"name": "StatefulPartitionedCall/sequential_3/densenet121/conv5_block1_0_bn/FusedBatchNormV3/Offset", "shape": [512], "dtype": "float32"}, {"name": "StatefulPartitionedCall/sequential_3/densenet121/pool4_bn/FusedBatchNormV3/Scaled", "shape": [1024], "dtype": "float32"}, {"name": "StatefulPartitionedCall/sequential_3/densenet121/pool4_bn/FusedBatchNormV3/Offset", "shape": [1024], "dtype": "float32"}, {"name": "StatefulPartitionedCall/sequential_3/densenet121/conv4_block24_0_bn/FusedBatchNormV3/Scaled", "shape": [992], "dtype": "float32"}, {"name": "StatefulPartitionedCall/sequential_3/densenet121/conv4_block24_0_bn/FusedBatchNormV3/Offset", "shape": [992], "dtype": "float32"}, {"name": "StatefulPartitionedCall/sequential_3/densenet121/conv4_block23_0_bn/FusedBatchNormV3/Scaled", "shape": [960], "dtype": "float32"}, {"name": "StatefulPartitionedCall/sequential_3/densenet121/conv4_block23_0_bn/FusedBatchNormV3/Offset", "shape": [960], "dtype": "float32"}, {"name": "StatefulPartitionedCall/sequential_3/densenet121/conv4_block22_0_bn/FusedBatchNormV3/Scaled", "shape": [928], "dtype": "float32"}, {"name": "StatefulPartitionedCall/sequential_3/densenet121/conv4_block22_0_bn/FusedBatchNormV3/Offset", "shape": [928], "dtype": "float32"}, {"name": "StatefulPartitionedCall/sequential_3/densenet121/conv4_block21_0_bn/FusedBatchNormV3/Scaled", "shape": [896], "dtype": "float32"}, {"name": "StatefulPartitionedCall/sequential_3/densenet121/conv4_block21_0_bn/FusedBatchNormV3/Offset", "shape": [896], "dtype": "float32"}, {"name": "StatefulPartitionedCall/sequential_3/densenet121/conv4_block20_0_bn/FusedBatchNormV3/Scaled", "shape": [864], "dtype": "float32"}, {"name": "StatefulPartitionedCall/sequential_3/densenet121/conv4_block20_0_bn/FusedBatchNormV3/Offset", "shape": [864], "dtype": "float32"}, {"name": "StatefulPartitionedCall/sequential_3/densenet121/conv4_block19_0_bn/FusedBatchNormV3/Scaled", "shape": [832], "dtype": "float32"}, {"name": "StatefulPartitionedCall/sequential_3/densenet121/conv4_block19_0_bn/FusedBatchNormV3/Offset", "shape": [832], "dtype": "float32"}, {"name": "StatefulPartitionedCall/sequential_3/densenet121/conv4_block18_0_bn/FusedBatchNormV3/Scaled", "shape": [800], "dtype": "float32"}, {"name": "StatefulPartitionedCall/sequential_3/densenet121/conv4_block18_0_bn/FusedBatchNormV3/Offset", "shape": [800], "dtype": "float32"}, {"name": "StatefulPartitionedCall/sequential_3/densenet121/conv4_block17_0_bn/FusedBatchNormV3/Scaled", "shape": [768], "dtype": "float32"}, {"name": "StatefulPartitionedCall/sequential_3/densenet121/conv4_block17_0_bn/FusedBatchNormV3/Offset", "shape": [768], "dtype": "float32"}, {"name": "StatefulPartitionedCall/sequential_3/densenet121/conv4_block16_0_bn/FusedBatchNormV3/Scaled", "shape": [736], "dtype": "float32"}, {"name": "StatefulPartitionedCall/sequential_3/densenet121/conv4_block16_0_bn/FusedBatchNormV3/Offset", "shape": [736], "dtype": "float32"}, {"name": "StatefulPartitionedCall/sequential_3/densenet121/conv4_block15_0_bn/FusedBatchNormV3/Scaled", "shape": [704], "dtype": "float32"}, {"name": "StatefulPartitionedCall/sequential_3/densenet121/conv4_block15_0_bn/FusedBatchNormV3/Offset", "shape": [704], "dtype": "float32"}, {"name": "StatefulPartitionedCall/sequential_3/densenet121/conv4_block14_0_bn/FusedBatchNormV3/Scaled", "shape": [672], "dtype": "float32"}, {"name": "StatefulPartitionedCall/sequential_3/densenet121/conv4_block14_0_bn/FusedBatchNormV3/Offset", "shape": [672], "dtype": "float32"}, {"name": "StatefulPartitionedCall/sequential_3/densenet121/conv4_block13_0_bn/FusedBatchNormV3/Scaled", "shape": [640], "dtype": "float32"}, {"name": "StatefulPartitionedCall/sequential_3/densenet121/conv4_block13_0_bn/FusedBatchNormV3/Offset", "shape": [640], "dtype": "float32"}, {"name": "StatefulPartitionedCall/sequential_3/densenet121/conv4_block12_0_bn/FusedBatchNormV3/Scaled", "shape": [608], "dtype": "float32"}, {"name": "StatefulPartitionedCall/sequential_3/densenet121/conv4_block12_0_bn/FusedBatchNormV3/Offset", "shape": [608], "dtype": "float32"}, {"name": "StatefulPartitionedCall/sequential_3/densenet121/conv4_block11_0_bn/FusedBatchNormV3/Scaled", "shape": [576], "dtype": "float32"}, {"name": "StatefulPartitionedCall/sequential_3/densenet121/conv4_block11_0_bn/FusedBatchNormV3/Offset", "shape": [576], "dtype": "float32"}, {"name": "StatefulPartitionedCall/sequential_3/densenet121/conv4_block10_0_bn/FusedBatchNormV3/Scaled", "shape": [544], "dtype": "float32"}, {"name": "StatefulPartitionedCall/sequential_3/densenet121/conv4_block10_0_bn/FusedBatchNormV3/Offset", "shape": [544], "dtype": "float32"}, {"name": "StatefulPartitionedCall/sequential_3/densenet121/conv4_block9_0_bn/FusedBatchNormV3/Scaled", "shape": [512], "dtype": "float32"}, {"name": "StatefulPartitionedCall/sequential_3/densenet121/conv4_block9_0_bn/FusedBatchNormV3/Offset", "shape": [512], "dtype": "float32"}, {"name": "StatefulPartitionedCall/sequential_3/densenet121/conv4_block8_0_bn/FusedBatchNormV3/Scaled", "shape": [480], "dtype": "float32"}, {"name": "StatefulPartitionedCall/sequential_3/densenet121/conv4_block8_0_bn/FusedBatchNormV3/Offset", "shape": [480], "dtype": "float32"}, {"name": "StatefulPartitionedCall/sequential_3/densenet121/conv4_block7_0_bn/FusedBatchNormV3/Scaled", "shape": [448], "dtype": "float32"}, {"name": "StatefulPartitionedCall/sequential_3/densenet121/conv4_block7_0_bn/FusedBatchNormV3/Offset", "shape": [448], "dtype": "float32"}, {"name": "StatefulPartitionedCall/sequential_3/densenet121/conv4_block6_0_bn/FusedBatchNormV3/Scaled", "shape": [416], "dtype": "float32"}, {"name": "StatefulPartitionedCall/sequential_3/densenet121/conv4_block6_0_bn/FusedBatchNormV3/Offset", "shape": [416], "dtype": "float32"}, {"name": "StatefulPartitionedCall/sequential_3/densenet121/conv4_block5_0_bn/FusedBatchNormV3/Scaled", "shape": [384], "dtype": "float32"}, {"name": "StatefulPartitionedCall/sequential_3/densenet121/conv4_block5_0_bn/FusedBatchNormV3/Offset", "shape": [384], "dtype": "float32"}, {"name": "StatefulPartitionedCall/sequential_3/densenet121/conv4_block4_0_bn/FusedBatchNormV3/Scaled", "shape": [352], "dtype": "float32"}, {"name": "StatefulPartitionedCall/sequential_3/densenet121/conv4_block4_0_bn/FusedBatchNormV3/Offset", "shape": [352], "dtype": "float32"}, {"name": "StatefulPartitionedCall/sequential_3/densenet121/conv4_block3_0_bn/FusedBatchNormV3/Scaled", "shape": [320], "dtype": "float32"}, {"name": "StatefulPartitionedCall/sequential_3/densenet121/conv4_block3_0_bn/FusedBatchNormV3/Offset", "shape": [320], "dtype": "float32"}, {"name": "StatefulPartitionedCall/sequential_3/densenet121/conv4_block2_0_bn/FusedBatchNormV3/Scaled", "shape": [288], "dtype": "float32"}, {"name": "StatefulPartitionedCall/sequential_3/densenet121/conv4_block2_0_bn/FusedBatchNormV3/Offset", "shape": [288], "dtype": "float32"}, {"name": "StatefulPartitionedCall/sequential_3/densenet121/conv4_block1_0_bn/FusedBatchNormV3/Scaled", "shape": [256], "dtype": "float32"}, {"name": "StatefulPartitionedCall/sequential_3/densenet121/conv4_block1_0_bn/FusedBatchNormV3/Offset", "shape": [256], "dtype": "float32"}, {"name": "StatefulPartitionedCall/sequential_3/densenet121/pool3_bn/FusedBatchNormV3/Scaled", "shape": [512], "dtype": "float32"}, {"name": "StatefulPartitionedCall/sequential_3/densenet121/pool3_bn/FusedBatchNormV3/Offset", "shape": [512], "dtype": "float32"}, {"name": "StatefulPartitionedCall/sequential_3/densenet121/conv3_block12_0_bn/FusedBatchNormV3/Scaled", "shape": [480], "dtype": "float32"}, {"name": "StatefulPartitionedCall/sequential_3/densenet121/conv3_block12_0_bn/FusedBatchNormV3/Offset", "shape": [480], "dtype": "float32"}, {"name": "StatefulPartitionedCall/sequential_3/densenet121/conv3_block11_0_bn/FusedBatchNormV3/Scaled", "shape": [448], "dtype": "float32"}]}]}